{"format": "layers-model", "generatedBy": "keras v2.13.1", "convertedBy": "TensorFlow.js Converter v4.8.0", "modelTopology": {"keras_version": "2.13.1", "backend": "tensorflow", "model_config": {"class_name": "Functional", "config": {"name": "model_11", "trainable": true, "layers": [{"class_name": "InputLayer", "config": {"batch_input_shape": [null, 224, 224, 3], "dtype": "float32", "sparse": false, "ragged": false, "name": "input_6"}, "name": "input_6", "inbound_nodes": []}, {"class_name": "Conv2D", "config": {"name": "conv2d_180", "trainable": true, "dtype": "float32", "filters": 32, "kernel_size": [3, 3], "strides": [2, 2], "padding": "same", "data_format": "channels_last", "dilation_rate": [1, 1], "groups": 1, "activation": "linear", "use_bias": true, "kernel_initializer": {"module": "keras.initializers", "class_name": "GlorotUniform", "config": {"seed": null}, "registered_name": null}, "bias_initializer": {"module": "keras.initializers", "class_name": "Zeros", "config": {}, "registered_name": null}, "kernel_regularizer": null, "bias_regularizer": null, "activity_regularizer": null, "kernel_constraint": null, "bias_constraint": null}, "name": "conv2d_180", "inbound_nodes": [[["input_6", 0, 0, {}]]]}, {"class_name": "BatchNormalization", "config": {"name": "batch_normalization_265", "trainable": true, "dtype": "float32", "axis": [3], "momentum": 0.99, "epsilon": 0.001, "center": true, "scale": true, "beta_initializer": {"module": "keras.initializers", "class_name": "Zeros", "config": {}, "registered_name": null}, "gamma_initializer": {"module": "keras.initializers", "class_name": "Ones", "config": {}, "registered_name": null}, "moving_mean_initializer": {"module": "keras.initializers", "class_name": "Zeros", "config": {}, "registered_name": null}, "moving_variance_initializer": {"module": "keras.initializers", "class_name": "Ones", "config": {}, "registered_name": null}, "beta_regularizer": null, "gamma_regularizer": null, "beta_constraint": null, "gamma_constraint": null}, "name": "batch_normalization_265", "inbound_nodes": [[["conv2d_180", 0, 0, {}]]]}, {"class_name": "ReLU", "config": {"name": "re_lu_180", "trainable": true, "dtype": "float32", "max_value": null, "negative_slope": 0.0, "threshold": 0.0}, "name": "re_lu_180", "inbound_nodes": [[["batch_normalization_265", 0, 0, {}]]]}, {"class_name": "Conv2D", "config": {"name": "conv2d_181", "trainable": true, "dtype": "float32", "filters": 32, "kernel_size": [1, 1], "strides": [1, 1], "padding": "same", "data_format": "channels_last", "dilation_rate": [1, 1], "groups": 1, "activation": "linear", "use_bias": true, "kernel_initializer": {"module": "keras.initializers", "class_name": "GlorotUniform", "config": {"seed": null}, "registered_name": null}, "bias_initializer": {"module": "keras.initializers", "class_name": "Zeros", "config": {}, "registered_name": null}, "kernel_regularizer": null, "bias_regularizer": null, "activity_regularizer": null, "kernel_constraint": null, "bias_constraint": null}, "name": "conv2d_181", "inbound_nodes": [[["re_lu_180", 0, 0, {}]]]}, {"class_name": "BatchNormalization", "config": {"name": "batch_normalization_266", "trainable": true, "dtype": "float32", "axis": [3], "momentum": 0.99, "epsilon": 0.001, "center": true, "scale": true, "beta_initializer": {"module": "keras.initializers", "class_name": "Zeros", "config": {}, "registered_name": null}, "gamma_initializer": {"module": "keras.initializers", "class_name": "Ones", "config": {}, "registered_name": null}, "moving_mean_initializer": {"module": "keras.initializers", "class_name": "Zeros", "config": {}, "registered_name": null}, "moving_variance_initializer": {"module": "keras.initializers", "class_name": "Ones", "config": {}, "registered_name": null}, "beta_regularizer": null, "gamma_regularizer": null, "beta_constraint": null, "gamma_constraint": null}, "name": "batch_normalization_266", "inbound_nodes": [[["conv2d_181", 0, 0, {}]]]}, {"class_name": "ReLU", "config": {"name": "re_lu_181", "trainable": true, "dtype": "float32", "max_value": null, "negative_slope": 0.0, "threshold": 0.0}, "name": "re_lu_181", "inbound_nodes": [[["batch_normalization_266", 0, 0, {}]]]}, {"class_name": "DepthwiseConv2D", "config": {"name": "depthwise_conv2d_85", "trainable": true, "dtype": "float32", "kernel_size": [3, 3], "strides": [1, 1], "padding": "same", "data_format": "channels_last", "dilation_rate": [1, 1], "groups": 1, "activation": "linear", "use_bias": true, "bias_initializer": {"module": "keras.initializers", "class_name": "Zeros", "config": {}, "registered_name": null}, "bias_regularizer": null, "activity_regularizer": null, "bias_constraint": null, "depth_multiplier": 1, "depthwise_initializer": {"module": "keras.initializers", "class_name": "GlorotUniform", "config": {"seed": null}, "registered_name": null}, "depthwise_regularizer": null, "depthwise_constraint": null}, "name": "depthwise_conv2d_85", "inbound_nodes": [[["re_lu_181", 0, 0, {}]]]}, {"class_name": "BatchNormalization", "config": {"name": "batch_normalization_267", "trainable": true, "dtype": "float32", "axis": [3], "momentum": 0.99, "epsilon": 0.001, "center": true, "scale": true, "beta_initializer": {"module": "keras.initializers", "class_name": "Zeros", "config": {}, "registered_name": null}, "gamma_initializer": {"module": "keras.initializers", "class_name": "Ones", "config": {}, "registered_name": null}, "moving_mean_initializer": {"module": "keras.initializers", "class_name": "Zeros", "config": {}, "registered_name": null}, "moving_variance_initializer": {"module": "keras.initializers", "class_name": "Ones", "config": {}, "registered_name": null}, "beta_regularizer": null, "gamma_regularizer": null, "beta_constraint": null, "gamma_constraint": null}, "name": "batch_normalization_267", "inbound_nodes": [[["depthwise_conv2d_85", 0, 0, {}]]]}, {"class_name": "ReLU", "config": {"name": "re_lu_182", "trainable": true, "dtype": "float32", "max_value": null, "negative_slope": 0.0, "threshold": 0.0}, "name": "re_lu_182", "inbound_nodes": [[["batch_normalization_267", 0, 0, {}]]]}, {"class_name": "Conv2D", "config": {"name": "conv2d_182", "trainable": true, "dtype": "float32", "filters": 16, "kernel_size": [1, 1], "strides": [1, 1], "padding": "same", "data_format": "channels_last", "dilation_rate": [1, 1], "groups": 1, "activation": "linear", "use_bias": true, "kernel_initializer": {"module": "keras.initializers", "class_name": "GlorotUniform", "config": {"seed": null}, "registered_name": null}, "bias_initializer": {"module": "keras.initializers", "class_name": "Zeros", "config": {}, "registered_name": null}, "kernel_regularizer": null, "bias_regularizer": null, "activity_regularizer": null, "kernel_constraint": null, "bias_constraint": null}, "name": "conv2d_182", "inbound_nodes": [[["re_lu_182", 0, 0, {}]]]}, {"class_name": "BatchNormalization", "config": {"name": "batch_normalization_268", "trainable": true, "dtype": "float32", "axis": [3], "momentum": 0.99, "epsilon": 0.001, "center": true, "scale": true, "beta_initializer": {"module": "keras.initializers", "class_name": "Zeros", "config": {}, "registered_name": null}, "gamma_initializer": {"module": "keras.initializers", "class_name": "Ones", "config": {}, "registered_name": null}, "moving_mean_initializer": {"module": "keras.initializers", "class_name": "Zeros", "config": {}, "registered_name": null}, "moving_variance_initializer": {"module": "keras.initializers", "class_name": "Ones", "config": {}, "registered_name": null}, "beta_regularizer": null, "gamma_regularizer": null, "beta_constraint": null, "gamma_constraint": null}, "name": "batch_normalization_268", "inbound_nodes": [[["conv2d_182", 0, 0, {}]]]}, {"class_name": "Conv2D", "config": {"name": "conv2d_183", "trainable": true, "dtype": "float32", "filters": 96, "kernel_size": [1, 1], "strides": [1, 1], "padding": "same", "data_format": "channels_last", "dilation_rate": [1, 1], "groups": 1, "activation": "linear", "use_bias": true, "kernel_initializer": {"module": "keras.initializers", "class_name": "GlorotUniform", "config": {"seed": null}, "registered_name": null}, "bias_initializer": {"module": "keras.initializers", "class_name": "Zeros", "config": {}, "registered_name": null}, "kernel_regularizer": null, "bias_regularizer": null, "activity_regularizer": null, "kernel_constraint": null, "bias_constraint": null}, "name": "conv2d_183", "inbound_nodes": [[["batch_normalization_268", 0, 0, {}]]]}, {"class_name": "BatchNormalization", "config": {"name": "batch_normalization_269", "trainable": true, "dtype": "float32", "axis": [3], "momentum": 0.99, "epsilon": 0.001, "center": true, "scale": true, "beta_initializer": {"module": "keras.initializers", "class_name": "Zeros", "config": {}, "registered_name": null}, "gamma_initializer": {"module": "keras.initializers", "class_name": "Ones", "config": {}, "registered_name": null}, "moving_mean_initializer": {"module": "keras.initializers", "class_name": "Zeros", "config": {}, "registered_name": null}, "moving_variance_initializer": {"module": "keras.initializers", "class_name": "Ones", "config": {}, "registered_name": null}, "beta_regularizer": null, "gamma_regularizer": null, "beta_constraint": null, "gamma_constraint": null}, "name": "batch_normalization_269", "inbound_nodes": [[["conv2d_183", 0, 0, {}]]]}, {"class_name": "ReLU", "config": {"name": "re_lu_183", "trainable": true, "dtype": "float32", "max_value": null, "negative_slope": 0.0, "threshold": 0.0}, "name": "re_lu_183", "inbound_nodes": [[["batch_normalization_269", 0, 0, {}]]]}, {"class_name": "DepthwiseConv2D", "config": {"name": "depthwise_conv2d_86", "trainable": true, "dtype": "float32", "kernel_size": [3, 3], "strides": [2, 2], "padding": "same", "data_format": "channels_last", "dilation_rate": [1, 1], "groups": 1, "activation": "linear", "use_bias": true, "bias_initializer": {"module": "keras.initializers", "class_name": "Zeros", "config": {}, "registered_name": null}, "bias_regularizer": null, "activity_regularizer": null, "bias_constraint": null, "depth_multiplier": 1, "depthwise_initializer": {"module": "keras.initializers", "class_name": "GlorotUniform", "config": {"seed": null}, "registered_name": null}, "depthwise_regularizer": null, "depthwise_constraint": null}, "name": "depthwise_conv2d_86", "inbound_nodes": [[["re_lu_183", 0, 0, {}]]]}, {"class_name": "BatchNormalization", "config": {"name": "batch_normalization_270", "trainable": true, "dtype": "float32", "axis": [3], "momentum": 0.99, "epsilon": 0.001, "center": true, "scale": true, "beta_initializer": {"module": "keras.initializers", "class_name": "Zeros", "config": {}, "registered_name": null}, "gamma_initializer": {"module": "keras.initializers", "class_name": "Ones", "config": {}, "registered_name": null}, "moving_mean_initializer": {"module": "keras.initializers", "class_name": "Zeros", "config": {}, "registered_name": null}, "moving_variance_initializer": {"module": "keras.initializers", "class_name": "Ones", "config": {}, "registered_name": null}, "beta_regularizer": null, "gamma_regularizer": null, "beta_constraint": null, "gamma_constraint": null}, "name": "batch_normalization_270", "inbound_nodes": [[["depthwise_conv2d_86", 0, 0, {}]]]}, {"class_name": "ReLU", "config": {"name": "re_lu_184", "trainable": true, "dtype": "float32", "max_value": null, "negative_slope": 0.0, "threshold": 0.0}, "name": "re_lu_184", "inbound_nodes": [[["batch_normalization_270", 0, 0, {}]]]}, {"class_name": "Conv2D", "config": {"name": "conv2d_184", "trainable": true, "dtype": "float32", "filters": 24, "kernel_size": [1, 1], "strides": [1, 1], "padding": "same", "data_format": "channels_last", "dilation_rate": [1, 1], "groups": 1, "activation": "linear", "use_bias": true, "kernel_initializer": {"module": "keras.initializers", "class_name": "GlorotUniform", "config": {"seed": null}, "registered_name": null}, "bias_initializer": {"module": "keras.initializers", "class_name": "Zeros", "config": {}, "registered_name": null}, "kernel_regularizer": null, "bias_regularizer": null, "activity_regularizer": null, "kernel_constraint": null, "bias_constraint": null}, "name": "conv2d_184", "inbound_nodes": [[["re_lu_184", 0, 0, {}]]]}, {"class_name": "BatchNormalization", "config": {"name": "batch_normalization_271", "trainable": true, "dtype": "float32", "axis": [3], "momentum": 0.99, "epsilon": 0.001, "center": true, "scale": true, "beta_initializer": {"module": "keras.initializers", "class_name": "Zeros", "config": {}, "registered_name": null}, "gamma_initializer": {"module": "keras.initializers", "class_name": "Ones", "config": {}, "registered_name": null}, "moving_mean_initializer": {"module": "keras.initializers", "class_name": "Zeros", "config": {}, "registered_name": null}, "moving_variance_initializer": {"module": "keras.initializers", "class_name": "Ones", "config": {}, "registered_name": null}, "beta_regularizer": null, "gamma_regularizer": null, "beta_constraint": null, "gamma_constraint": null}, "name": "batch_normalization_271", "inbound_nodes": [[["conv2d_184", 0, 0, {}]]]}, {"class_name": "Conv2D", "config": {"name": "conv2d_185", "trainable": true, "dtype": "float32", "filters": 144, "kernel_size": [1, 1], "strides": [1, 1], "padding": "same", "data_format": "channels_last", "dilation_rate": [1, 1], "groups": 1, "activation": "linear", "use_bias": true, "kernel_initializer": {"module": "keras.initializers", "class_name": "GlorotUniform", "config": {"seed": null}, "registered_name": null}, "bias_initializer": {"module": "keras.initializers", "class_name": "Zeros", "config": {}, "registered_name": null}, "kernel_regularizer": null, "bias_regularizer": null, "activity_regularizer": null, "kernel_constraint": null, "bias_constraint": null}, "name": "conv2d_185", "inbound_nodes": [[["batch_normalization_271", 0, 0, {}]]]}, {"class_name": "BatchNormalization", "config": {"name": "batch_normalization_272", "trainable": true, "dtype": "float32", "axis": [3], "momentum": 0.99, "epsilon": 0.001, "center": true, "scale": true, "beta_initializer": {"module": "keras.initializers", "class_name": "Zeros", "config": {}, "registered_name": null}, "gamma_initializer": {"module": "keras.initializers", "class_name": "Ones", "config": {}, "registered_name": null}, "moving_mean_initializer": {"module": "keras.initializers", "class_name": "Zeros", "config": {}, "registered_name": null}, "moving_variance_initializer": {"module": "keras.initializers", "class_name": "Ones", "config": {}, "registered_name": null}, "beta_regularizer": null, "gamma_regularizer": null, "beta_constraint": null, "gamma_constraint": null}, "name": "batch_normalization_272", "inbound_nodes": [[["conv2d_185", 0, 0, {}]]]}, {"class_name": "ReLU", "config": {"name": "re_lu_185", "trainable": true, "dtype": "float32", "max_value": null, "negative_slope": 0.0, "threshold": 0.0}, "name": "re_lu_185", "inbound_nodes": [[["batch_normalization_272", 0, 0, {}]]]}, {"class_name": "DepthwiseConv2D", "config": {"name": "depthwise_conv2d_87", "trainable": true, "dtype": "float32", "kernel_size": [3, 3], "strides": [1, 1], "padding": "same", "data_format": "channels_last", "dilation_rate": [1, 1], "groups": 1, "activation": "linear", "use_bias": true, "bias_initializer": {"module": "keras.initializers", "class_name": "Zeros", "config": {}, "registered_name": null}, "bias_regularizer": null, "activity_regularizer": null, "bias_constraint": null, "depth_multiplier": 1, "depthwise_initializer": {"module": "keras.initializers", "class_name": "GlorotUniform", "config": {"seed": null}, "registered_name": null}, "depthwise_regularizer": null, "depthwise_constraint": null}, "name": "depthwise_conv2d_87", "inbound_nodes": [[["re_lu_185", 0, 0, {}]]]}, {"class_name": "BatchNormalization", "config": {"name": "batch_normalization_273", "trainable": true, "dtype": "float32", "axis": [3], "momentum": 0.99, "epsilon": 0.001, "center": true, "scale": true, "beta_initializer": {"module": "keras.initializers", "class_name": "Zeros", "config": {}, "registered_name": null}, "gamma_initializer": {"module": "keras.initializers", "class_name": "Ones", "config": {}, "registered_name": null}, "moving_mean_initializer": {"module": "keras.initializers", "class_name": "Zeros", "config": {}, "registered_name": null}, "moving_variance_initializer": {"module": "keras.initializers", "class_name": "Ones", "config": {}, "registered_name": null}, "beta_regularizer": null, "gamma_regularizer": null, "beta_constraint": null, "gamma_constraint": null}, "name": "batch_normalization_273", "inbound_nodes": [[["depthwise_conv2d_87", 0, 0, {}]]]}, {"class_name": "ReLU", "config": {"name": "re_lu_186", "trainable": true, "dtype": "float32", "max_value": null, "negative_slope": 0.0, "threshold": 0.0}, "name": "re_lu_186", "inbound_nodes": [[["batch_normalization_273", 0, 0, {}]]]}, {"class_name": "Conv2D", "config": {"name": "conv2d_186", "trainable": true, "dtype": "float32", "filters": 24, "kernel_size": [1, 1], "strides": [1, 1], "padding": "same", "data_format": "channels_last", "dilation_rate": [1, 1], "groups": 1, "activation": "linear", "use_bias": true, "kernel_initializer": {"module": "keras.initializers", "class_name": "GlorotUniform", "config": {"seed": null}, "registered_name": null}, "bias_initializer": {"module": "keras.initializers", "class_name": "Zeros", "config": {}, "registered_name": null}, "kernel_regularizer": null, "bias_regularizer": null, "activity_regularizer": null, "kernel_constraint": null, "bias_constraint": null}, "name": "conv2d_186", "inbound_nodes": [[["re_lu_186", 0, 0, {}]]]}, {"class_name": "BatchNormalization", "config": {"name": "batch_normalization_274", "trainable": true, "dtype": "float32", "axis": [3], "momentum": 0.99, "epsilon": 0.001, "center": true, "scale": true, "beta_initializer": {"module": "keras.initializers", "class_name": "Zeros", "config": {}, "registered_name": null}, "gamma_initializer": {"module": "keras.initializers", "class_name": "Ones", "config": {}, "registered_name": null}, "moving_mean_initializer": {"module": "keras.initializers", "class_name": "Zeros", "config": {}, "registered_name": null}, "moving_variance_initializer": {"module": "keras.initializers", "class_name": "Ones", "config": {}, "registered_name": null}, "beta_regularizer": null, "gamma_regularizer": null, "beta_constraint": null, "gamma_constraint": null}, "name": "batch_normalization_274", "inbound_nodes": [[["conv2d_186", 0, 0, {}]]]}, {"class_name": "Add", "config": {"name": "add_50", "trainable": true, "dtype": "float32"}, "name": "add_50", "inbound_nodes": [[["batch_normalization_271", 0, 0, {}], ["batch_normalization_274", 0, 0, {}]]]}, {"class_name": "Conv2D", "config": {"name": "conv2d_187", "trainable": true, "dtype": "float32", "filters": 144, "kernel_size": [1, 1], "strides": [1, 1], "padding": "same", "data_format": "channels_last", "dilation_rate": [1, 1], "groups": 1, "activation": "linear", "use_bias": true, "kernel_initializer": {"module": "keras.initializers", "class_name": "GlorotUniform", "config": {"seed": null}, "registered_name": null}, "bias_initializer": {"module": "keras.initializers", "class_name": "Zeros", "config": {}, "registered_name": null}, "kernel_regularizer": null, "bias_regularizer": null, "activity_regularizer": null, "kernel_constraint": null, "bias_constraint": null}, "name": "conv2d_187", "inbound_nodes": [[["add_50", 0, 0, {}]]]}, {"class_name": "BatchNormalization", "config": {"name": "batch_normalization_275", "trainable": true, "dtype": "float32", "axis": [3], "momentum": 0.99, "epsilon": 0.001, "center": true, "scale": true, "beta_initializer": {"module": "keras.initializers", "class_name": "Zeros", "config": {}, "registered_name": null}, "gamma_initializer": {"module": "keras.initializers", "class_name": "Ones", "config": {}, "registered_name": null}, "moving_mean_initializer": {"module": "keras.initializers", "class_name": "Zeros", "config": {}, "registered_name": null}, "moving_variance_initializer": {"module": "keras.initializers", "class_name": "Ones", "config": {}, "registered_name": null}, "beta_regularizer": null, "gamma_regularizer": null, "beta_constraint": null, "gamma_constraint": null}, "name": "batch_normalization_275", "inbound_nodes": [[["conv2d_187", 0, 0, {}]]]}, {"class_name": "ReLU", "config": {"name": "re_lu_187", "trainable": true, "dtype": "float32", "max_value": null, "negative_slope": 0.0, "threshold": 0.0}, "name": "re_lu_187", "inbound_nodes": [[["batch_normalization_275", 0, 0, {}]]]}, {"class_name": "DepthwiseConv2D", "config": {"name": "depthwise_conv2d_88", "trainable": true, "dtype": "float32", "kernel_size": [3, 3], "strides": [2, 2], "padding": "same", "data_format": "channels_last", "dilation_rate": [1, 1], "groups": 1, "activation": "linear", "use_bias": true, "bias_initializer": {"module": "keras.initializers", "class_name": "Zeros", "config": {}, "registered_name": null}, "bias_regularizer": null, "activity_regularizer": null, "bias_constraint": null, "depth_multiplier": 1, "depthwise_initializer": {"module": "keras.initializers", "class_name": "GlorotUniform", "config": {"seed": null}, "registered_name": null}, "depthwise_regularizer": null, "depthwise_constraint": null}, "name": "depthwise_conv2d_88", "inbound_nodes": [[["re_lu_187", 0, 0, {}]]]}, {"class_name": "BatchNormalization", "config": {"name": "batch_normalization_276", "trainable": true, "dtype": "float32", "axis": [3], "momentum": 0.99, "epsilon": 0.001, "center": true, "scale": true, "beta_initializer": {"module": "keras.initializers", "class_name": "Zeros", "config": {}, "registered_name": null}, "gamma_initializer": {"module": "keras.initializers", "class_name": "Ones", "config": {}, "registered_name": null}, "moving_mean_initializer": {"module": "keras.initializers", "class_name": "Zeros", "config": {}, "registered_name": null}, "moving_variance_initializer": {"module": "keras.initializers", "class_name": "Ones", "config": {}, "registered_name": null}, "beta_regularizer": null, "gamma_regularizer": null, "beta_constraint": null, "gamma_constraint": null}, "name": "batch_normalization_276", "inbound_nodes": [[["depthwise_conv2d_88", 0, 0, {}]]]}, {"class_name": "ReLU", "config": {"name": "re_lu_188", "trainable": true, "dtype": "float32", "max_value": null, "negative_slope": 0.0, "threshold": 0.0}, "name": "re_lu_188", "inbound_nodes": [[["batch_normalization_276", 0, 0, {}]]]}, {"class_name": "Conv2D", "config": {"name": "conv2d_188", "trainable": true, "dtype": "float32", "filters": 32, "kernel_size": [1, 1], "strides": [1, 1], "padding": "same", "data_format": "channels_last", "dilation_rate": [1, 1], "groups": 1, "activation": "linear", "use_bias": true, "kernel_initializer": {"module": "keras.initializers", "class_name": "GlorotUniform", "config": {"seed": null}, "registered_name": null}, "bias_initializer": {"module": "keras.initializers", "class_name": "Zeros", "config": {}, "registered_name": null}, "kernel_regularizer": null, "bias_regularizer": null, "activity_regularizer": null, "kernel_constraint": null, "bias_constraint": null}, "name": "conv2d_188", "inbound_nodes": [[["re_lu_188", 0, 0, {}]]]}, {"class_name": "BatchNormalization", "config": {"name": "batch_normalization_277", "trainable": true, "dtype": "float32", "axis": [3], "momentum": 0.99, "epsilon": 0.001, "center": true, "scale": true, "beta_initializer": {"module": "keras.initializers", "class_name": "Zeros", "config": {}, "registered_name": null}, "gamma_initializer": {"module": "keras.initializers", "class_name": "Ones", "config": {}, "registered_name": null}, "moving_mean_initializer": {"module": "keras.initializers", "class_name": "Zeros", "config": {}, "registered_name": null}, "moving_variance_initializer": {"module": "keras.initializers", "class_name": "Ones", "config": {}, "registered_name": null}, "beta_regularizer": null, "gamma_regularizer": null, "beta_constraint": null, "gamma_constraint": null}, "name": "batch_normalization_277", "inbound_nodes": [[["conv2d_188", 0, 0, {}]]]}, {"class_name": "Conv2D", "config": {"name": "conv2d_189", "trainable": true, "dtype": "float32", "filters": 192, "kernel_size": [1, 1], "strides": [1, 1], "padding": "same", "data_format": "channels_last", "dilation_rate": [1, 1], "groups": 1, "activation": "linear", "use_bias": true, "kernel_initializer": {"module": "keras.initializers", "class_name": "GlorotUniform", "config": {"seed": null}, "registered_name": null}, "bias_initializer": {"module": "keras.initializers", "class_name": "Zeros", "config": {}, "registered_name": null}, "kernel_regularizer": null, "bias_regularizer": null, "activity_regularizer": null, "kernel_constraint": null, "bias_constraint": null}, "name": "conv2d_189", "inbound_nodes": [[["batch_normalization_277", 0, 0, {}]]]}, {"class_name": "BatchNormalization", "config": {"name": "batch_normalization_278", "trainable": true, "dtype": "float32", "axis": [3], "momentum": 0.99, "epsilon": 0.001, "center": true, "scale": true, "beta_initializer": {"module": "keras.initializers", "class_name": "Zeros", "config": {}, "registered_name": null}, "gamma_initializer": {"module": "keras.initializers", "class_name": "Ones", "config": {}, "registered_name": null}, "moving_mean_initializer": {"module": "keras.initializers", "class_name": "Zeros", "config": {}, "registered_name": null}, "moving_variance_initializer": {"module": "keras.initializers", "class_name": "Ones", "config": {}, "registered_name": null}, "beta_regularizer": null, "gamma_regularizer": null, "beta_constraint": null, "gamma_constraint": null}, "name": "batch_normalization_278", "inbound_nodes": [[["conv2d_189", 0, 0, {}]]]}, {"class_name": "ReLU", "config": {"name": "re_lu_189", "trainable": true, "dtype": "float32", "max_value": null, "negative_slope": 0.0, "threshold": 0.0}, "name": "re_lu_189", "inbound_nodes": [[["batch_normalization_278", 0, 0, {}]]]}, {"class_name": "DepthwiseConv2D", "config": {"name": "depthwise_conv2d_89", "trainable": true, "dtype": "float32", "kernel_size": [3, 3], "strides": [1, 1], "padding": "same", "data_format": "channels_last", "dilation_rate": [1, 1], "groups": 1, "activation": "linear", "use_bias": true, "bias_initializer": {"module": "keras.initializers", "class_name": "Zeros", "config": {}, "registered_name": null}, "bias_regularizer": null, "activity_regularizer": null, "bias_constraint": null, "depth_multiplier": 1, "depthwise_initializer": {"module": "keras.initializers", "class_name": "GlorotUniform", "config": {"seed": null}, "registered_name": null}, "depthwise_regularizer": null, "depthwise_constraint": null}, "name": "depthwise_conv2d_89", "inbound_nodes": [[["re_lu_189", 0, 0, {}]]]}, {"class_name": "BatchNormalization", "config": {"name": "batch_normalization_279", "trainable": true, "dtype": "float32", "axis": [3], "momentum": 0.99, "epsilon": 0.001, "center": true, "scale": true, "beta_initializer": {"module": "keras.initializers", "class_name": "Zeros", "config": {}, "registered_name": null}, "gamma_initializer": {"module": "keras.initializers", "class_name": "Ones", "config": {}, "registered_name": null}, "moving_mean_initializer": {"module": "keras.initializers", "class_name": "Zeros", "config": {}, "registered_name": null}, "moving_variance_initializer": {"module": "keras.initializers", "class_name": "Ones", "config": {}, "registered_name": null}, "beta_regularizer": null, "gamma_regularizer": null, "beta_constraint": null, "gamma_constraint": null}, "name": "batch_normalization_279", "inbound_nodes": [[["depthwise_conv2d_89", 0, 0, {}]]]}, {"class_name": "ReLU", "config": {"name": "re_lu_190", "trainable": true, "dtype": "float32", "max_value": null, "negative_slope": 0.0, "threshold": 0.0}, "name": "re_lu_190", "inbound_nodes": [[["batch_normalization_279", 0, 0, {}]]]}, {"class_name": "Conv2D", "config": {"name": "conv2d_190", "trainable": true, "dtype": "float32", "filters": 32, "kernel_size": [1, 1], "strides": [1, 1], "padding": "same", "data_format": "channels_last", "dilation_rate": [1, 1], "groups": 1, "activation": "linear", "use_bias": true, "kernel_initializer": {"module": "keras.initializers", "class_name": "GlorotUniform", "config": {"seed": null}, "registered_name": null}, "bias_initializer": {"module": "keras.initializers", "class_name": "Zeros", "config": {}, "registered_name": null}, "kernel_regularizer": null, "bias_regularizer": null, "activity_regularizer": null, "kernel_constraint": null, "bias_constraint": null}, "name": "conv2d_190", "inbound_nodes": [[["re_lu_190", 0, 0, {}]]]}, {"class_name": "BatchNormalization", "config": {"name": "batch_normalization_280", "trainable": true, "dtype": "float32", "axis": [3], "momentum": 0.99, "epsilon": 0.001, "center": true, "scale": true, "beta_initializer": {"module": "keras.initializers", "class_name": "Zeros", "config": {}, "registered_name": null}, "gamma_initializer": {"module": "keras.initializers", "class_name": "Ones", "config": {}, "registered_name": null}, "moving_mean_initializer": {"module": "keras.initializers", "class_name": "Zeros", "config": {}, "registered_name": null}, "moving_variance_initializer": {"module": "keras.initializers", "class_name": "Ones", "config": {}, "registered_name": null}, "beta_regularizer": null, "gamma_regularizer": null, "beta_constraint": null, "gamma_constraint": null}, "name": "batch_normalization_280", "inbound_nodes": [[["conv2d_190", 0, 0, {}]]]}, {"class_name": "Add", "config": {"name": "add_51", "trainable": true, "dtype": "float32"}, "name": "add_51", "inbound_nodes": [[["batch_normalization_277", 0, 0, {}], ["batch_normalization_280", 0, 0, {}]]]}, {"class_name": "Conv2D", "config": {"name": "conv2d_191", "trainable": true, "dtype": "float32", "filters": 192, "kernel_size": [1, 1], "strides": [1, 1], "padding": "same", "data_format": "channels_last", "dilation_rate": [1, 1], "groups": 1, "activation": "linear", "use_bias": true, "kernel_initializer": {"module": "keras.initializers", "class_name": "GlorotUniform", "config": {"seed": null}, "registered_name": null}, "bias_initializer": {"module": "keras.initializers", "class_name": "Zeros", "config": {}, "registered_name": null}, "kernel_regularizer": null, "bias_regularizer": null, "activity_regularizer": null, "kernel_constraint": null, "bias_constraint": null}, "name": "conv2d_191", "inbound_nodes": [[["add_51", 0, 0, {}]]]}, {"class_name": "BatchNormalization", "config": {"name": "batch_normalization_281", "trainable": true, "dtype": "float32", "axis": [3], "momentum": 0.99, "epsilon": 0.001, "center": true, "scale": true, "beta_initializer": {"module": "keras.initializers", "class_name": "Zeros", "config": {}, "registered_name": null}, "gamma_initializer": {"module": "keras.initializers", "class_name": "Ones", "config": {}, "registered_name": null}, "moving_mean_initializer": {"module": "keras.initializers", "class_name": "Zeros", "config": {}, "registered_name": null}, "moving_variance_initializer": {"module": "keras.initializers", "class_name": "Ones", "config": {}, "registered_name": null}, "beta_regularizer": null, "gamma_regularizer": null, "beta_constraint": null, "gamma_constraint": null}, "name": "batch_normalization_281", "inbound_nodes": [[["conv2d_191", 0, 0, {}]]]}, {"class_name": "ReLU", "config": {"name": "re_lu_191", "trainable": true, "dtype": "float32", "max_value": null, "negative_slope": 0.0, "threshold": 0.0}, "name": "re_lu_191", "inbound_nodes": [[["batch_normalization_281", 0, 0, {}]]]}, {"class_name": "DepthwiseConv2D", "config": {"name": "depthwise_conv2d_90", "trainable": true, "dtype": "float32", "kernel_size": [3, 3], "strides": [1, 1], "padding": "same", "data_format": "channels_last", "dilation_rate": [1, 1], "groups": 1, "activation": "linear", "use_bias": true, "bias_initializer": {"module": "keras.initializers", "class_name": "Zeros", "config": {}, "registered_name": null}, "bias_regularizer": null, "activity_regularizer": null, "bias_constraint": null, "depth_multiplier": 1, "depthwise_initializer": {"module": "keras.initializers", "class_name": "GlorotUniform", "config": {"seed": null}, "registered_name": null}, "depthwise_regularizer": null, "depthwise_constraint": null}, "name": "depthwise_conv2d_90", "inbound_nodes": [[["re_lu_191", 0, 0, {}]]]}, {"class_name": "BatchNormalization", "config": {"name": "batch_normalization_282", "trainable": true, "dtype": "float32", "axis": [3], "momentum": 0.99, "epsilon": 0.001, "center": true, "scale": true, "beta_initializer": {"module": "keras.initializers", "class_name": "Zeros", "config": {}, "registered_name": null}, "gamma_initializer": {"module": "keras.initializers", "class_name": "Ones", "config": {}, "registered_name": null}, "moving_mean_initializer": {"module": "keras.initializers", "class_name": "Zeros", "config": {}, "registered_name": null}, "moving_variance_initializer": {"module": "keras.initializers", "class_name": "Ones", "config": {}, "registered_name": null}, "beta_regularizer": null, "gamma_regularizer": null, "beta_constraint": null, "gamma_constraint": null}, "name": "batch_normalization_282", "inbound_nodes": [[["depthwise_conv2d_90", 0, 0, {}]]]}, {"class_name": "ReLU", "config": {"name": "re_lu_192", "trainable": true, "dtype": "float32", "max_value": null, "negative_slope": 0.0, "threshold": 0.0}, "name": "re_lu_192", "inbound_nodes": [[["batch_normalization_282", 0, 0, {}]]]}, {"class_name": "Conv2D", "config": {"name": "conv2d_192", "trainable": true, "dtype": "float32", "filters": 32, "kernel_size": [1, 1], "strides": [1, 1], "padding": "same", "data_format": "channels_last", "dilation_rate": [1, 1], "groups": 1, "activation": "linear", "use_bias": true, "kernel_initializer": {"module": "keras.initializers", "class_name": "GlorotUniform", "config": {"seed": null}, "registered_name": null}, "bias_initializer": {"module": "keras.initializers", "class_name": "Zeros", "config": {}, "registered_name": null}, "kernel_regularizer": null, "bias_regularizer": null, "activity_regularizer": null, "kernel_constraint": null, "bias_constraint": null}, "name": "conv2d_192", "inbound_nodes": [[["re_lu_192", 0, 0, {}]]]}, {"class_name": "BatchNormalization", "config": {"name": "batch_normalization_283", "trainable": true, "dtype": "float32", "axis": [3], "momentum": 0.99, "epsilon": 0.001, "center": true, "scale": true, "beta_initializer": {"module": "keras.initializers", "class_name": "Zeros", "config": {}, "registered_name": null}, "gamma_initializer": {"module": "keras.initializers", "class_name": "Ones", "config": {}, "registered_name": null}, "moving_mean_initializer": {"module": "keras.initializers", "class_name": "Zeros", "config": {}, "registered_name": null}, "moving_variance_initializer": {"module": "keras.initializers", "class_name": "Ones", "config": {}, "registered_name": null}, "beta_regularizer": null, "gamma_regularizer": null, "beta_constraint": null, "gamma_constraint": null}, "name": "batch_normalization_283", "inbound_nodes": [[["conv2d_192", 0, 0, {}]]]}, {"class_name": "Add", "config": {"name": "add_52", "trainable": true, "dtype": "float32"}, "name": "add_52", "inbound_nodes": [[["add_51", 0, 0, {}], ["batch_normalization_283", 0, 0, {}]]]}, {"class_name": "Conv2D", "config": {"name": "conv2d_193", "trainable": true, "dtype": "float32", "filters": 192, "kernel_size": [1, 1], "strides": [1, 1], "padding": "same", "data_format": "channels_last", "dilation_rate": [1, 1], "groups": 1, "activation": "linear", "use_bias": true, "kernel_initializer": {"module": "keras.initializers", "class_name": "GlorotUniform", "config": {"seed": null}, "registered_name": null}, "bias_initializer": {"module": "keras.initializers", "class_name": "Zeros", "config": {}, "registered_name": null}, "kernel_regularizer": null, "bias_regularizer": null, "activity_regularizer": null, "kernel_constraint": null, "bias_constraint": null}, "name": "conv2d_193", "inbound_nodes": [[["add_52", 0, 0, {}]]]}, {"class_name": "BatchNormalization", "config": {"name": "batch_normalization_284", "trainable": true, "dtype": "float32", "axis": [3], "momentum": 0.99, "epsilon": 0.001, "center": true, "scale": true, "beta_initializer": {"module": "keras.initializers", "class_name": "Zeros", "config": {}, "registered_name": null}, "gamma_initializer": {"module": "keras.initializers", "class_name": "Ones", "config": {}, "registered_name": null}, "moving_mean_initializer": {"module": "keras.initializers", "class_name": "Zeros", "config": {}, "registered_name": null}, "moving_variance_initializer": {"module": "keras.initializers", "class_name": "Ones", "config": {}, "registered_name": null}, "beta_regularizer": null, "gamma_regularizer": null, "beta_constraint": null, "gamma_constraint": null}, "name": "batch_normalization_284", "inbound_nodes": [[["conv2d_193", 0, 0, {}]]]}, {"class_name": "ReLU", "config": {"name": "re_lu_193", "trainable": true, "dtype": "float32", "max_value": null, "negative_slope": 0.0, "threshold": 0.0}, "name": "re_lu_193", "inbound_nodes": [[["batch_normalization_284", 0, 0, {}]]]}, {"class_name": "DepthwiseConv2D", "config": {"name": "depthwise_conv2d_91", "trainable": true, "dtype": "float32", "kernel_size": [3, 3], "strides": [2, 2], "padding": "same", "data_format": "channels_last", "dilation_rate": [1, 1], "groups": 1, "activation": "linear", "use_bias": true, "bias_initializer": {"module": "keras.initializers", "class_name": "Zeros", "config": {}, "registered_name": null}, "bias_regularizer": null, "activity_regularizer": null, "bias_constraint": null, "depth_multiplier": 1, "depthwise_initializer": {"module": "keras.initializers", "class_name": "GlorotUniform", "config": {"seed": null}, "registered_name": null}, "depthwise_regularizer": null, "depthwise_constraint": null}, "name": "depthwise_conv2d_91", "inbound_nodes": [[["re_lu_193", 0, 0, {}]]]}, {"class_name": "BatchNormalization", "config": {"name": "batch_normalization_285", "trainable": true, "dtype": "float32", "axis": [3], "momentum": 0.99, "epsilon": 0.001, "center": true, "scale": true, "beta_initializer": {"module": "keras.initializers", "class_name": "Zeros", "config": {}, "registered_name": null}, "gamma_initializer": {"module": "keras.initializers", "class_name": "Ones", "config": {}, "registered_name": null}, "moving_mean_initializer": {"module": "keras.initializers", "class_name": "Zeros", "config": {}, "registered_name": null}, "moving_variance_initializer": {"module": "keras.initializers", "class_name": "Ones", "config": {}, "registered_name": null}, "beta_regularizer": null, "gamma_regularizer": null, "beta_constraint": null, "gamma_constraint": null}, "name": "batch_normalization_285", "inbound_nodes": [[["depthwise_conv2d_91", 0, 0, {}]]]}, {"class_name": "ReLU", "config": {"name": "re_lu_194", "trainable": true, "dtype": "float32", "max_value": null, "negative_slope": 0.0, "threshold": 0.0}, "name": "re_lu_194", "inbound_nodes": [[["batch_normalization_285", 0, 0, {}]]]}, {"class_name": "Conv2D", "config": {"name": "conv2d_194", "trainable": true, "dtype": "float32", "filters": 64, "kernel_size": [1, 1], "strides": [1, 1], "padding": "same", "data_format": "channels_last", "dilation_rate": [1, 1], "groups": 1, "activation": "linear", "use_bias": true, "kernel_initializer": {"module": "keras.initializers", "class_name": "GlorotUniform", "config": {"seed": null}, "registered_name": null}, "bias_initializer": {"module": "keras.initializers", "class_name": "Zeros", "config": {}, "registered_name": null}, "kernel_regularizer": null, "bias_regularizer": null, "activity_regularizer": null, "kernel_constraint": null, "bias_constraint": null}, "name": "conv2d_194", "inbound_nodes": [[["re_lu_194", 0, 0, {}]]]}, {"class_name": "BatchNormalization", "config": {"name": "batch_normalization_286", "trainable": true, "dtype": "float32", "axis": [3], "momentum": 0.99, "epsilon": 0.001, "center": true, "scale": true, "beta_initializer": {"module": "keras.initializers", "class_name": "Zeros", "config": {}, "registered_name": null}, "gamma_initializer": {"module": "keras.initializers", "class_name": "Ones", "config": {}, "registered_name": null}, "moving_mean_initializer": {"module": "keras.initializers", "class_name": "Zeros", "config": {}, "registered_name": null}, "moving_variance_initializer": {"module": "keras.initializers", "class_name": "Ones", "config": {}, "registered_name": null}, "beta_regularizer": null, "gamma_regularizer": null, "beta_constraint": null, "gamma_constraint": null}, "name": "batch_normalization_286", "inbound_nodes": [[["conv2d_194", 0, 0, {}]]]}, {"class_name": "Conv2D", "config": {"name": "conv2d_195", "trainable": true, "dtype": "float32", "filters": 384, "kernel_size": [1, 1], "strides": [1, 1], "padding": "same", "data_format": "channels_last", "dilation_rate": [1, 1], "groups": 1, "activation": "linear", "use_bias": true, "kernel_initializer": {"module": "keras.initializers", "class_name": "GlorotUniform", "config": {"seed": null}, "registered_name": null}, "bias_initializer": {"module": "keras.initializers", "class_name": "Zeros", "config": {}, "registered_name": null}, "kernel_regularizer": null, "bias_regularizer": null, "activity_regularizer": null, "kernel_constraint": null, "bias_constraint": null}, "name": "conv2d_195", "inbound_nodes": [[["batch_normalization_286", 0, 0, {}]]]}, {"class_name": "BatchNormalization", "config": {"name": "batch_normalization_287", "trainable": true, "dtype": "float32", "axis": [3], "momentum": 0.99, "epsilon": 0.001, "center": true, "scale": true, "beta_initializer": {"module": "keras.initializers", "class_name": "Zeros", "config": {}, "registered_name": null}, "gamma_initializer": {"module": "keras.initializers", "class_name": "Ones", "config": {}, "registered_name": null}, "moving_mean_initializer": {"module": "keras.initializers", "class_name": "Zeros", "config": {}, "registered_name": null}, "moving_variance_initializer": {"module": "keras.initializers", "class_name": "Ones", "config": {}, "registered_name": null}, "beta_regularizer": null, "gamma_regularizer": null, "beta_constraint": null, "gamma_constraint": null}, "name": "batch_normalization_287", "inbound_nodes": [[["conv2d_195", 0, 0, {}]]]}, {"class_name": "ReLU", "config": {"name": "re_lu_195", "trainable": true, "dtype": "float32", "max_value": null, "negative_slope": 0.0, "threshold": 0.0}, "name": "re_lu_195", "inbound_nodes": [[["batch_normalization_287", 0, 0, {}]]]}, {"class_name": "DepthwiseConv2D", "config": {"name": "depthwise_conv2d_92", "trainable": true, "dtype": "float32", "kernel_size": [3, 3], "strides": [1, 1], "padding": "same", "data_format": "channels_last", "dilation_rate": [1, 1], "groups": 1, "activation": "linear", "use_bias": true, "bias_initializer": {"module": "keras.initializers", "class_name": "Zeros", "config": {}, "registered_name": null}, "bias_regularizer": null, "activity_regularizer": null, "bias_constraint": null, "depth_multiplier": 1, "depthwise_initializer": {"module": "keras.initializers", "class_name": "GlorotUniform", "config": {"seed": null}, "registered_name": null}, "depthwise_regularizer": null, "depthwise_constraint": null}, "name": "depthwise_conv2d_92", "inbound_nodes": [[["re_lu_195", 0, 0, {}]]]}, {"class_name": "BatchNormalization", "config": {"name": "batch_normalization_288", "trainable": true, "dtype": "float32", "axis": [3], "momentum": 0.99, "epsilon": 0.001, "center": true, "scale": true, "beta_initializer": {"module": "keras.initializers", "class_name": "Zeros", "config": {}, "registered_name": null}, "gamma_initializer": {"module": "keras.initializers", "class_name": "Ones", "config": {}, "registered_name": null}, "moving_mean_initializer": {"module": "keras.initializers", "class_name": "Zeros", "config": {}, "registered_name": null}, "moving_variance_initializer": {"module": "keras.initializers", "class_name": "Ones", "config": {}, "registered_name": null}, "beta_regularizer": null, "gamma_regularizer": null, "beta_constraint": null, "gamma_constraint": null}, "name": "batch_normalization_288", "inbound_nodes": [[["depthwise_conv2d_92", 0, 0, {}]]]}, {"class_name": "ReLU", "config": {"name": "re_lu_196", "trainable": true, "dtype": "float32", "max_value": null, "negative_slope": 0.0, "threshold": 0.0}, "name": "re_lu_196", "inbound_nodes": [[["batch_normalization_288", 0, 0, {}]]]}, {"class_name": "Conv2D", "config": {"name": "conv2d_196", "trainable": true, "dtype": "float32", "filters": 64, "kernel_size": [1, 1], "strides": [1, 1], "padding": "same", "data_format": "channels_last", "dilation_rate": [1, 1], "groups": 1, "activation": "linear", "use_bias": true, "kernel_initializer": {"module": "keras.initializers", "class_name": "GlorotUniform", "config": {"seed": null}, "registered_name": null}, "bias_initializer": {"module": "keras.initializers", "class_name": "Zeros", "config": {}, "registered_name": null}, "kernel_regularizer": null, "bias_regularizer": null, "activity_regularizer": null, "kernel_constraint": null, "bias_constraint": null}, "name": "conv2d_196", "inbound_nodes": [[["re_lu_196", 0, 0, {}]]]}, {"class_name": "BatchNormalization", "config": {"name": "batch_normalization_289", "trainable": true, "dtype": "float32", "axis": [3], "momentum": 0.99, "epsilon": 0.001, "center": true, "scale": true, "beta_initializer": {"module": "keras.initializers", "class_name": "Zeros", "config": {}, "registered_name": null}, "gamma_initializer": {"module": "keras.initializers", "class_name": "Ones", "config": {}, "registered_name": null}, "moving_mean_initializer": {"module": "keras.initializers", "class_name": "Zeros", "config": {}, "registered_name": null}, "moving_variance_initializer": {"module": "keras.initializers", "class_name": "Ones", "config": {}, "registered_name": null}, "beta_regularizer": null, "gamma_regularizer": null, "beta_constraint": null, "gamma_constraint": null}, "name": "batch_normalization_289", "inbound_nodes": [[["conv2d_196", 0, 0, {}]]]}, {"class_name": "Add", "config": {"name": "add_53", "trainable": true, "dtype": "float32"}, "name": "add_53", "inbound_nodes": [[["batch_normalization_286", 0, 0, {}], ["batch_normalization_289", 0, 0, {}]]]}, {"class_name": "Conv2D", "config": {"name": "conv2d_197", "trainable": true, "dtype": "float32", "filters": 384, "kernel_size": [1, 1], "strides": [1, 1], "padding": "same", "data_format": "channels_last", "dilation_rate": [1, 1], "groups": 1, "activation": "linear", "use_bias": true, "kernel_initializer": {"module": "keras.initializers", "class_name": "GlorotUniform", "config": {"seed": null}, "registered_name": null}, "bias_initializer": {"module": "keras.initializers", "class_name": "Zeros", "config": {}, "registered_name": null}, "kernel_regularizer": null, "bias_regularizer": null, "activity_regularizer": null, "kernel_constraint": null, "bias_constraint": null}, "name": "conv2d_197", "inbound_nodes": [[["add_53", 0, 0, {}]]]}, {"class_name": "BatchNormalization", "config": {"name": "batch_normalization_290", "trainable": true, "dtype": "float32", "axis": [3], "momentum": 0.99, "epsilon": 0.001, "center": true, "scale": true, "beta_initializer": {"module": "keras.initializers", "class_name": "Zeros", "config": {}, "registered_name": null}, "gamma_initializer": {"module": "keras.initializers", "class_name": "Ones", "config": {}, "registered_name": null}, "moving_mean_initializer": {"module": "keras.initializers", "class_name": "Zeros", "config": {}, "registered_name": null}, "moving_variance_initializer": {"module": "keras.initializers", "class_name": "Ones", "config": {}, "registered_name": null}, "beta_regularizer": null, "gamma_regularizer": null, "beta_constraint": null, "gamma_constraint": null}, "name": "batch_normalization_290", "inbound_nodes": [[["conv2d_197", 0, 0, {}]]]}, {"class_name": "ReLU", "config": {"name": "re_lu_197", "trainable": true, "dtype": "float32", "max_value": null, "negative_slope": 0.0, "threshold": 0.0}, "name": "re_lu_197", "inbound_nodes": [[["batch_normalization_290", 0, 0, {}]]]}, {"class_name": "DepthwiseConv2D", "config": {"name": "depthwise_conv2d_93", "trainable": true, "dtype": "float32", "kernel_size": [3, 3], "strides": [1, 1], "padding": "same", "data_format": "channels_last", "dilation_rate": [1, 1], "groups": 1, "activation": "linear", "use_bias": true, "bias_initializer": {"module": "keras.initializers", "class_name": "Zeros", "config": {}, "registered_name": null}, "bias_regularizer": null, "activity_regularizer": null, "bias_constraint": null, "depth_multiplier": 1, "depthwise_initializer": {"module": "keras.initializers", "class_name": "GlorotUniform", "config": {"seed": null}, "registered_name": null}, "depthwise_regularizer": null, "depthwise_constraint": null}, "name": "depthwise_conv2d_93", "inbound_nodes": [[["re_lu_197", 0, 0, {}]]]}, {"class_name": "BatchNormalization", "config": {"name": "batch_normalization_291", "trainable": true, "dtype": "float32", "axis": [3], "momentum": 0.99, "epsilon": 0.001, "center": true, "scale": true, "beta_initializer": {"module": "keras.initializers", "class_name": "Zeros", "config": {}, "registered_name": null}, "gamma_initializer": {"module": "keras.initializers", "class_name": "Ones", "config": {}, "registered_name": null}, "moving_mean_initializer": {"module": "keras.initializers", "class_name": "Zeros", "config": {}, "registered_name": null}, "moving_variance_initializer": {"module": "keras.initializers", "class_name": "Ones", "config": {}, "registered_name": null}, "beta_regularizer": null, "gamma_regularizer": null, "beta_constraint": null, "gamma_constraint": null}, "name": "batch_normalization_291", "inbound_nodes": [[["depthwise_conv2d_93", 0, 0, {}]]]}, {"class_name": "ReLU", "config": {"name": "re_lu_198", "trainable": true, "dtype": "float32", "max_value": null, "negative_slope": 0.0, "threshold": 0.0}, "name": "re_lu_198", "inbound_nodes": [[["batch_normalization_291", 0, 0, {}]]]}, {"class_name": "Conv2D", "config": {"name": "conv2d_198", "trainable": true, "dtype": "float32", "filters": 64, "kernel_size": [1, 1], "strides": [1, 1], "padding": "same", "data_format": "channels_last", "dilation_rate": [1, 1], "groups": 1, "activation": "linear", "use_bias": true, "kernel_initializer": {"module": "keras.initializers", "class_name": "GlorotUniform", "config": {"seed": null}, "registered_name": null}, "bias_initializer": {"module": "keras.initializers", "class_name": "Zeros", "config": {}, "registered_name": null}, "kernel_regularizer": null, "bias_regularizer": null, "activity_regularizer": null, "kernel_constraint": null, "bias_constraint": null}, "name": "conv2d_198", "inbound_nodes": [[["re_lu_198", 0, 0, {}]]]}, {"class_name": "BatchNormalization", "config": {"name": "batch_normalization_292", "trainable": true, "dtype": "float32", "axis": [3], "momentum": 0.99, "epsilon": 0.001, "center": true, "scale": true, "beta_initializer": {"module": "keras.initializers", "class_name": "Zeros", "config": {}, "registered_name": null}, "gamma_initializer": {"module": "keras.initializers", "class_name": "Ones", "config": {}, "registered_name": null}, "moving_mean_initializer": {"module": "keras.initializers", "class_name": "Zeros", "config": {}, "registered_name": null}, "moving_variance_initializer": {"module": "keras.initializers", "class_name": "Ones", "config": {}, "registered_name": null}, "beta_regularizer": null, "gamma_regularizer": null, "beta_constraint": null, "gamma_constraint": null}, "name": "batch_normalization_292", "inbound_nodes": [[["conv2d_198", 0, 0, {}]]]}, {"class_name": "Add", "config": {"name": "add_54", "trainable": true, "dtype": "float32"}, "name": "add_54", "inbound_nodes": [[["add_53", 0, 0, {}], ["batch_normalization_292", 0, 0, {}]]]}, {"class_name": "Conv2D", "config": {"name": "conv2d_199", "trainable": true, "dtype": "float32", "filters": 384, "kernel_size": [1, 1], "strides": [1, 1], "padding": "same", "data_format": "channels_last", "dilation_rate": [1, 1], "groups": 1, "activation": "linear", "use_bias": true, "kernel_initializer": {"module": "keras.initializers", "class_name": "GlorotUniform", "config": {"seed": null}, "registered_name": null}, "bias_initializer": {"module": "keras.initializers", "class_name": "Zeros", "config": {}, "registered_name": null}, "kernel_regularizer": null, "bias_regularizer": null, "activity_regularizer": null, "kernel_constraint": null, "bias_constraint": null}, "name": "conv2d_199", "inbound_nodes": [[["add_54", 0, 0, {}]]]}, {"class_name": "BatchNormalization", "config": {"name": "batch_normalization_293", "trainable": true, "dtype": "float32", "axis": [3], "momentum": 0.99, "epsilon": 0.001, "center": true, "scale": true, "beta_initializer": {"module": "keras.initializers", "class_name": "Zeros", "config": {}, "registered_name": null}, "gamma_initializer": {"module": "keras.initializers", "class_name": "Ones", "config": {}, "registered_name": null}, "moving_mean_initializer": {"module": "keras.initializers", "class_name": "Zeros", "config": {}, "registered_name": null}, "moving_variance_initializer": {"module": "keras.initializers", "class_name": "Ones", "config": {}, "registered_name": null}, "beta_regularizer": null, "gamma_regularizer": null, "beta_constraint": null, "gamma_constraint": null}, "name": "batch_normalization_293", "inbound_nodes": [[["conv2d_199", 0, 0, {}]]]}, {"class_name": "ReLU", "config": {"name": "re_lu_199", "trainable": true, "dtype": "float32", "max_value": null, "negative_slope": 0.0, "threshold": 0.0}, "name": "re_lu_199", "inbound_nodes": [[["batch_normalization_293", 0, 0, {}]]]}, {"class_name": "DepthwiseConv2D", "config": {"name": "depthwise_conv2d_94", "trainable": true, "dtype": "float32", "kernel_size": [3, 3], "strides": [1, 1], "padding": "same", "data_format": "channels_last", "dilation_rate": [1, 1], "groups": 1, "activation": "linear", "use_bias": true, "bias_initializer": {"module": "keras.initializers", "class_name": "Zeros", "config": {}, "registered_name": null}, "bias_regularizer": null, "activity_regularizer": null, "bias_constraint": null, "depth_multiplier": 1, "depthwise_initializer": {"module": "keras.initializers", "class_name": "GlorotUniform", "config": {"seed": null}, "registered_name": null}, "depthwise_regularizer": null, "depthwise_constraint": null}, "name": "depthwise_conv2d_94", "inbound_nodes": [[["re_lu_199", 0, 0, {}]]]}, {"class_name": "BatchNormalization", "config": {"name": "batch_normalization_294", "trainable": true, "dtype": "float32", "axis": [3], "momentum": 0.99, "epsilon": 0.001, "center": true, "scale": true, "beta_initializer": {"module": "keras.initializers", "class_name": "Zeros", "config": {}, "registered_name": null}, "gamma_initializer": {"module": "keras.initializers", "class_name": "Ones", "config": {}, "registered_name": null}, "moving_mean_initializer": {"module": "keras.initializers", "class_name": "Zeros", "config": {}, "registered_name": null}, "moving_variance_initializer": {"module": "keras.initializers", "class_name": "Ones", "config": {}, "registered_name": null}, "beta_regularizer": null, "gamma_regularizer": null, "beta_constraint": null, "gamma_constraint": null}, "name": "batch_normalization_294", "inbound_nodes": [[["depthwise_conv2d_94", 0, 0, {}]]]}, {"class_name": "ReLU", "config": {"name": "re_lu_200", "trainable": true, "dtype": "float32", "max_value": null, "negative_slope": 0.0, "threshold": 0.0}, "name": "re_lu_200", "inbound_nodes": [[["batch_normalization_294", 0, 0, {}]]]}, {"class_name": "Conv2D", "config": {"name": "conv2d_200", "trainable": true, "dtype": "float32", "filters": 64, "kernel_size": [1, 1], "strides": [1, 1], "padding": "same", "data_format": "channels_last", "dilation_rate": [1, 1], "groups": 1, "activation": "linear", "use_bias": true, "kernel_initializer": {"module": "keras.initializers", "class_name": "GlorotUniform", "config": {"seed": null}, "registered_name": null}, "bias_initializer": {"module": "keras.initializers", "class_name": "Zeros", "config": {}, "registered_name": null}, "kernel_regularizer": null, "bias_regularizer": null, "activity_regularizer": null, "kernel_constraint": null, "bias_constraint": null}, "name": "conv2d_200", "inbound_nodes": [[["re_lu_200", 0, 0, {}]]]}, {"class_name": "BatchNormalization", "config": {"name": "batch_normalization_295", "trainable": true, "dtype": "float32", "axis": [3], "momentum": 0.99, "epsilon": 0.001, "center": true, "scale": true, "beta_initializer": {"module": "keras.initializers", "class_name": "Zeros", "config": {}, "registered_name": null}, "gamma_initializer": {"module": "keras.initializers", "class_name": "Ones", "config": {}, "registered_name": null}, "moving_mean_initializer": {"module": "keras.initializers", "class_name": "Zeros", "config": {}, "registered_name": null}, "moving_variance_initializer": {"module": "keras.initializers", "class_name": "Ones", "config": {}, "registered_name": null}, "beta_regularizer": null, "gamma_regularizer": null, "beta_constraint": null, "gamma_constraint": null}, "name": "batch_normalization_295", "inbound_nodes": [[["conv2d_200", 0, 0, {}]]]}, {"class_name": "Add", "config": {"name": "add_55", "trainable": true, "dtype": "float32"}, "name": "add_55", "inbound_nodes": [[["add_54", 0, 0, {}], ["batch_normalization_295", 0, 0, {}]]]}, {"class_name": "Conv2D", "config": {"name": "conv2d_201", "trainable": true, "dtype": "float32", "filters": 384, "kernel_size": [1, 1], "strides": [1, 1], "padding": "same", "data_format": "channels_last", "dilation_rate": [1, 1], "groups": 1, "activation": "linear", "use_bias": true, "kernel_initializer": {"module": "keras.initializers", "class_name": "GlorotUniform", "config": {"seed": null}, "registered_name": null}, "bias_initializer": {"module": "keras.initializers", "class_name": "Zeros", "config": {}, "registered_name": null}, "kernel_regularizer": null, "bias_regularizer": null, "activity_regularizer": null, "kernel_constraint": null, "bias_constraint": null}, "name": "conv2d_201", "inbound_nodes": [[["add_55", 0, 0, {}]]]}, {"class_name": "BatchNormalization", "config": {"name": "batch_normalization_296", "trainable": true, "dtype": "float32", "axis": [3], "momentum": 0.99, "epsilon": 0.001, "center": true, "scale": true, "beta_initializer": {"module": "keras.initializers", "class_name": "Zeros", "config": {}, "registered_name": null}, "gamma_initializer": {"module": "keras.initializers", "class_name": "Ones", "config": {}, "registered_name": null}, "moving_mean_initializer": {"module": "keras.initializers", "class_name": "Zeros", "config": {}, "registered_name": null}, "moving_variance_initializer": {"module": "keras.initializers", "class_name": "Ones", "config": {}, "registered_name": null}, "beta_regularizer": null, "gamma_regularizer": null, "beta_constraint": null, "gamma_constraint": null}, "name": "batch_normalization_296", "inbound_nodes": [[["conv2d_201", 0, 0, {}]]]}, {"class_name": "ReLU", "config": {"name": "re_lu_201", "trainable": true, "dtype": "float32", "max_value": null, "negative_slope": 0.0, "threshold": 0.0}, "name": "re_lu_201", "inbound_nodes": [[["batch_normalization_296", 0, 0, {}]]]}, {"class_name": "DepthwiseConv2D", "config": {"name": "depthwise_conv2d_95", "trainable": true, "dtype": "float32", "kernel_size": [3, 3], "strides": [1, 1], "padding": "same", "data_format": "channels_last", "dilation_rate": [1, 1], "groups": 1, "activation": "linear", "use_bias": true, "bias_initializer": {"module": "keras.initializers", "class_name": "Zeros", "config": {}, "registered_name": null}, "bias_regularizer": null, "activity_regularizer": null, "bias_constraint": null, "depth_multiplier": 1, "depthwise_initializer": {"module": "keras.initializers", "class_name": "GlorotUniform", "config": {"seed": null}, "registered_name": null}, "depthwise_regularizer": null, "depthwise_constraint": null}, "name": "depthwise_conv2d_95", "inbound_nodes": [[["re_lu_201", 0, 0, {}]]]}, {"class_name": "BatchNormalization", "config": {"name": "batch_normalization_297", "trainable": true, "dtype": "float32", "axis": [3], "momentum": 0.99, "epsilon": 0.001, "center": true, "scale": true, "beta_initializer": {"module": "keras.initializers", "class_name": "Zeros", "config": {}, "registered_name": null}, "gamma_initializer": {"module": "keras.initializers", "class_name": "Ones", "config": {}, "registered_name": null}, "moving_mean_initializer": {"module": "keras.initializers", "class_name": "Zeros", "config": {}, "registered_name": null}, "moving_variance_initializer": {"module": "keras.initializers", "class_name": "Ones", "config": {}, "registered_name": null}, "beta_regularizer": null, "gamma_regularizer": null, "beta_constraint": null, "gamma_constraint": null}, "name": "batch_normalization_297", "inbound_nodes": [[["depthwise_conv2d_95", 0, 0, {}]]]}, {"class_name": "ReLU", "config": {"name": "re_lu_202", "trainable": true, "dtype": "float32", "max_value": null, "negative_slope": 0.0, "threshold": 0.0}, "name": "re_lu_202", "inbound_nodes": [[["batch_normalization_297", 0, 0, {}]]]}, {"class_name": "Conv2D", "config": {"name": "conv2d_202", "trainable": true, "dtype": "float32", "filters": 96, "kernel_size": [1, 1], "strides": [1, 1], "padding": "same", "data_format": "channels_last", "dilation_rate": [1, 1], "groups": 1, "activation": "linear", "use_bias": true, "kernel_initializer": {"module": "keras.initializers", "class_name": "GlorotUniform", "config": {"seed": null}, "registered_name": null}, "bias_initializer": {"module": "keras.initializers", "class_name": "Zeros", "config": {}, "registered_name": null}, "kernel_regularizer": null, "bias_regularizer": null, "activity_regularizer": null, "kernel_constraint": null, "bias_constraint": null}, "name": "conv2d_202", "inbound_nodes": [[["re_lu_202", 0, 0, {}]]]}, {"class_name": "BatchNormalization", "config": {"name": "batch_normalization_298", "trainable": true, "dtype": "float32", "axis": [3], "momentum": 0.99, "epsilon": 0.001, "center": true, "scale": true, "beta_initializer": {"module": "keras.initializers", "class_name": "Zeros", "config": {}, "registered_name": null}, "gamma_initializer": {"module": "keras.initializers", "class_name": "Ones", "config": {}, "registered_name": null}, "moving_mean_initializer": {"module": "keras.initializers", "class_name": "Zeros", "config": {}, "registered_name": null}, "moving_variance_initializer": {"module": "keras.initializers", "class_name": "Ones", "config": {}, "registered_name": null}, "beta_regularizer": null, "gamma_regularizer": null, "beta_constraint": null, "gamma_constraint": null}, "name": "batch_normalization_298", "inbound_nodes": [[["conv2d_202", 0, 0, {}]]]}, {"class_name": "Conv2D", "config": {"name": "conv2d_203", "trainable": true, "dtype": "float32", "filters": 576, "kernel_size": [1, 1], "strides": [1, 1], "padding": "same", "data_format": "channels_last", "dilation_rate": [1, 1], "groups": 1, "activation": "linear", "use_bias": true, "kernel_initializer": {"module": "keras.initializers", "class_name": "GlorotUniform", "config": {"seed": null}, "registered_name": null}, "bias_initializer": {"module": "keras.initializers", "class_name": "Zeros", "config": {}, "registered_name": null}, "kernel_regularizer": null, "bias_regularizer": null, "activity_regularizer": null, "kernel_constraint": null, "bias_constraint": null}, "name": "conv2d_203", "inbound_nodes": [[["batch_normalization_298", 0, 0, {}]]]}, {"class_name": "BatchNormalization", "config": {"name": "batch_normalization_299", "trainable": true, "dtype": "float32", "axis": [3], "momentum": 0.99, "epsilon": 0.001, "center": true, "scale": true, "beta_initializer": {"module": "keras.initializers", "class_name": "Zeros", "config": {}, "registered_name": null}, "gamma_initializer": {"module": "keras.initializers", "class_name": "Ones", "config": {}, "registered_name": null}, "moving_mean_initializer": {"module": "keras.initializers", "class_name": "Zeros", "config": {}, "registered_name": null}, "moving_variance_initializer": {"module": "keras.initializers", "class_name": "Ones", "config": {}, "registered_name": null}, "beta_regularizer": null, "gamma_regularizer": null, "beta_constraint": null, "gamma_constraint": null}, "name": "batch_normalization_299", "inbound_nodes": [[["conv2d_203", 0, 0, {}]]]}, {"class_name": "ReLU", "config": {"name": "re_lu_203", "trainable": true, "dtype": "float32", "max_value": null, "negative_slope": 0.0, "threshold": 0.0}, "name": "re_lu_203", "inbound_nodes": [[["batch_normalization_299", 0, 0, {}]]]}, {"class_name": "DepthwiseConv2D", "config": {"name": "depthwise_conv2d_96", "trainable": true, "dtype": "float32", "kernel_size": [3, 3], "strides": [1, 1], "padding": "same", "data_format": "channels_last", "dilation_rate": [1, 1], "groups": 1, "activation": "linear", "use_bias": true, "bias_initializer": {"module": "keras.initializers", "class_name": "Zeros", "config": {}, "registered_name": null}, "bias_regularizer": null, "activity_regularizer": null, "bias_constraint": null, "depth_multiplier": 1, "depthwise_initializer": {"module": "keras.initializers", "class_name": "GlorotUniform", "config": {"seed": null}, "registered_name": null}, "depthwise_regularizer": null, "depthwise_constraint": null}, "name": "depthwise_conv2d_96", "inbound_nodes": [[["re_lu_203", 0, 0, {}]]]}, {"class_name": "BatchNormalization", "config": {"name": "batch_normalization_300", "trainable": true, "dtype": "float32", "axis": [3], "momentum": 0.99, "epsilon": 0.001, "center": true, "scale": true, "beta_initializer": {"module": "keras.initializers", "class_name": "Zeros", "config": {}, "registered_name": null}, "gamma_initializer": {"module": "keras.initializers", "class_name": "Ones", "config": {}, "registered_name": null}, "moving_mean_initializer": {"module": "keras.initializers", "class_name": "Zeros", "config": {}, "registered_name": null}, "moving_variance_initializer": {"module": "keras.initializers", "class_name": "Ones", "config": {}, "registered_name": null}, "beta_regularizer": null, "gamma_regularizer": null, "beta_constraint": null, "gamma_constraint": null}, "name": "batch_normalization_300", "inbound_nodes": [[["depthwise_conv2d_96", 0, 0, {}]]]}, {"class_name": "ReLU", "config": {"name": "re_lu_204", "trainable": true, "dtype": "float32", "max_value": null, "negative_slope": 0.0, "threshold": 0.0}, "name": "re_lu_204", "inbound_nodes": [[["batch_normalization_300", 0, 0, {}]]]}, {"class_name": "Conv2D", "config": {"name": "conv2d_204", "trainable": true, "dtype": "float32", "filters": 96, "kernel_size": [1, 1], "strides": [1, 1], "padding": "same", "data_format": "channels_last", "dilation_rate": [1, 1], "groups": 1, "activation": "linear", "use_bias": true, "kernel_initializer": {"module": "keras.initializers", "class_name": "GlorotUniform", "config": {"seed": null}, "registered_name": null}, "bias_initializer": {"module": "keras.initializers", "class_name": "Zeros", "config": {}, "registered_name": null}, "kernel_regularizer": null, "bias_regularizer": null, "activity_regularizer": null, "kernel_constraint": null, "bias_constraint": null}, "name": "conv2d_204", "inbound_nodes": [[["re_lu_204", 0, 0, {}]]]}, {"class_name": "BatchNormalization", "config": {"name": "batch_normalization_301", "trainable": true, "dtype": "float32", "axis": [3], "momentum": 0.99, "epsilon": 0.001, "center": true, "scale": true, "beta_initializer": {"module": "keras.initializers", "class_name": "Zeros", "config": {}, "registered_name": null}, "gamma_initializer": {"module": "keras.initializers", "class_name": "Ones", "config": {}, "registered_name": null}, "moving_mean_initializer": {"module": "keras.initializers", "class_name": "Zeros", "config": {}, "registered_name": null}, "moving_variance_initializer": {"module": "keras.initializers", "class_name": "Ones", "config": {}, "registered_name": null}, "beta_regularizer": null, "gamma_regularizer": null, "beta_constraint": null, "gamma_constraint": null}, "name": "batch_normalization_301", "inbound_nodes": [[["conv2d_204", 0, 0, {}]]]}, {"class_name": "Add", "config": {"name": "add_56", "trainable": true, "dtype": "float32"}, "name": "add_56", "inbound_nodes": [[["batch_normalization_298", 0, 0, {}], ["batch_normalization_301", 0, 0, {}]]]}, {"class_name": "Conv2D", "config": {"name": "conv2d_205", "trainable": true, "dtype": "float32", "filters": 576, "kernel_size": [1, 1], "strides": [1, 1], "padding": "same", "data_format": "channels_last", "dilation_rate": [1, 1], "groups": 1, "activation": "linear", "use_bias": true, "kernel_initializer": {"module": "keras.initializers", "class_name": "GlorotUniform", "config": {"seed": null}, "registered_name": null}, "bias_initializer": {"module": "keras.initializers", "class_name": "Zeros", "config": {}, "registered_name": null}, "kernel_regularizer": null, "bias_regularizer": null, "activity_regularizer": null, "kernel_constraint": null, "bias_constraint": null}, "name": "conv2d_205", "inbound_nodes": [[["add_56", 0, 0, {}]]]}, {"class_name": "BatchNormalization", "config": {"name": "batch_normalization_302", "trainable": true, "dtype": "float32", "axis": [3], "momentum": 0.99, "epsilon": 0.001, "center": true, "scale": true, "beta_initializer": {"module": "keras.initializers", "class_name": "Zeros", "config": {}, "registered_name": null}, "gamma_initializer": {"module": "keras.initializers", "class_name": "Ones", "config": {}, "registered_name": null}, "moving_mean_initializer": {"module": "keras.initializers", "class_name": "Zeros", "config": {}, "registered_name": null}, "moving_variance_initializer": {"module": "keras.initializers", "class_name": "Ones", "config": {}, "registered_name": null}, "beta_regularizer": null, "gamma_regularizer": null, "beta_constraint": null, "gamma_constraint": null}, "name": "batch_normalization_302", "inbound_nodes": [[["conv2d_205", 0, 0, {}]]]}, {"class_name": "ReLU", "config": {"name": "re_lu_205", "trainable": true, "dtype": "float32", "max_value": null, "negative_slope": 0.0, "threshold": 0.0}, "name": "re_lu_205", "inbound_nodes": [[["batch_normalization_302", 0, 0, {}]]]}, {"class_name": "DepthwiseConv2D", "config": {"name": "depthwise_conv2d_97", "trainable": true, "dtype": "float32", "kernel_size": [3, 3], "strides": [1, 1], "padding": "same", "data_format": "channels_last", "dilation_rate": [1, 1], "groups": 1, "activation": "linear", "use_bias": true, "bias_initializer": {"module": "keras.initializers", "class_name": "Zeros", "config": {}, "registered_name": null}, "bias_regularizer": null, "activity_regularizer": null, "bias_constraint": null, "depth_multiplier": 1, "depthwise_initializer": {"module": "keras.initializers", "class_name": "GlorotUniform", "config": {"seed": null}, "registered_name": null}, "depthwise_regularizer": null, "depthwise_constraint": null}, "name": "depthwise_conv2d_97", "inbound_nodes": [[["re_lu_205", 0, 0, {}]]]}, {"class_name": "BatchNormalization", "config": {"name": "batch_normalization_303", "trainable": true, "dtype": "float32", "axis": [3], "momentum": 0.99, "epsilon": 0.001, "center": true, "scale": true, "beta_initializer": {"module": "keras.initializers", "class_name": "Zeros", "config": {}, "registered_name": null}, "gamma_initializer": {"module": "keras.initializers", "class_name": "Ones", "config": {}, "registered_name": null}, "moving_mean_initializer": {"module": "keras.initializers", "class_name": "Zeros", "config": {}, "registered_name": null}, "moving_variance_initializer": {"module": "keras.initializers", "class_name": "Ones", "config": {}, "registered_name": null}, "beta_regularizer": null, "gamma_regularizer": null, "beta_constraint": null, "gamma_constraint": null}, "name": "batch_normalization_303", "inbound_nodes": [[["depthwise_conv2d_97", 0, 0, {}]]]}, {"class_name": "ReLU", "config": {"name": "re_lu_206", "trainable": true, "dtype": "float32", "max_value": null, "negative_slope": 0.0, "threshold": 0.0}, "name": "re_lu_206", "inbound_nodes": [[["batch_normalization_303", 0, 0, {}]]]}, {"class_name": "Conv2D", "config": {"name": "conv2d_206", "trainable": true, "dtype": "float32", "filters": 96, "kernel_size": [1, 1], "strides": [1, 1], "padding": "same", "data_format": "channels_last", "dilation_rate": [1, 1], "groups": 1, "activation": "linear", "use_bias": true, "kernel_initializer": {"module": "keras.initializers", "class_name": "GlorotUniform", "config": {"seed": null}, "registered_name": null}, "bias_initializer": {"module": "keras.initializers", "class_name": "Zeros", "config": {}, "registered_name": null}, "kernel_regularizer": null, "bias_regularizer": null, "activity_regularizer": null, "kernel_constraint": null, "bias_constraint": null}, "name": "conv2d_206", "inbound_nodes": [[["re_lu_206", 0, 0, {}]]]}, {"class_name": "BatchNormalization", "config": {"name": "batch_normalization_304", "trainable": true, "dtype": "float32", "axis": [3], "momentum": 0.99, "epsilon": 0.001, "center": true, "scale": true, "beta_initializer": {"module": "keras.initializers", "class_name": "Zeros", "config": {}, "registered_name": null}, "gamma_initializer": {"module": "keras.initializers", "class_name": "Ones", "config": {}, "registered_name": null}, "moving_mean_initializer": {"module": "keras.initializers", "class_name": "Zeros", "config": {}, "registered_name": null}, "moving_variance_initializer": {"module": "keras.initializers", "class_name": "Ones", "config": {}, "registered_name": null}, "beta_regularizer": null, "gamma_regularizer": null, "beta_constraint": null, "gamma_constraint": null}, "name": "batch_normalization_304", "inbound_nodes": [[["conv2d_206", 0, 0, {}]]]}, {"class_name": "Add", "config": {"name": "add_57", "trainable": true, "dtype": "float32"}, "name": "add_57", "inbound_nodes": [[["add_56", 0, 0, {}], ["batch_normalization_304", 0, 0, {}]]]}, {"class_name": "Conv2D", "config": {"name": "conv2d_207", "trainable": true, "dtype": "float32", "filters": 576, "kernel_size": [1, 1], "strides": [1, 1], "padding": "same", "data_format": "channels_last", "dilation_rate": [1, 1], "groups": 1, "activation": "linear", "use_bias": true, "kernel_initializer": {"module": "keras.initializers", "class_name": "GlorotUniform", "config": {"seed": null}, "registered_name": null}, "bias_initializer": {"module": "keras.initializers", "class_name": "Zeros", "config": {}, "registered_name": null}, "kernel_regularizer": null, "bias_regularizer": null, "activity_regularizer": null, "kernel_constraint": null, "bias_constraint": null}, "name": "conv2d_207", "inbound_nodes": [[["add_57", 0, 0, {}]]]}, {"class_name": "BatchNormalization", "config": {"name": "batch_normalization_305", "trainable": true, "dtype": "float32", "axis": [3], "momentum": 0.99, "epsilon": 0.001, "center": true, "scale": true, "beta_initializer": {"module": "keras.initializers", "class_name": "Zeros", "config": {}, "registered_name": null}, "gamma_initializer": {"module": "keras.initializers", "class_name": "Ones", "config": {}, "registered_name": null}, "moving_mean_initializer": {"module": "keras.initializers", "class_name": "Zeros", "config": {}, "registered_name": null}, "moving_variance_initializer": {"module": "keras.initializers", "class_name": "Ones", "config": {}, "registered_name": null}, "beta_regularizer": null, "gamma_regularizer": null, "beta_constraint": null, "gamma_constraint": null}, "name": "batch_normalization_305", "inbound_nodes": [[["conv2d_207", 0, 0, {}]]]}, {"class_name": "ReLU", "config": {"name": "re_lu_207", "trainable": true, "dtype": "float32", "max_value": null, "negative_slope": 0.0, "threshold": 0.0}, "name": "re_lu_207", "inbound_nodes": [[["batch_normalization_305", 0, 0, {}]]]}, {"class_name": "DepthwiseConv2D", "config": {"name": "depthwise_conv2d_98", "trainable": true, "dtype": "float32", "kernel_size": [3, 3], "strides": [2, 2], "padding": "same", "data_format": "channels_last", "dilation_rate": [1, 1], "groups": 1, "activation": "linear", "use_bias": true, "bias_initializer": {"module": "keras.initializers", "class_name": "Zeros", "config": {}, "registered_name": null}, "bias_regularizer": null, "activity_regularizer": null, "bias_constraint": null, "depth_multiplier": 1, "depthwise_initializer": {"module": "keras.initializers", "class_name": "GlorotUniform", "config": {"seed": null}, "registered_name": null}, "depthwise_regularizer": null, "depthwise_constraint": null}, "name": "depthwise_conv2d_98", "inbound_nodes": [[["re_lu_207", 0, 0, {}]]]}, {"class_name": "BatchNormalization", "config": {"name": "batch_normalization_306", "trainable": true, "dtype": "float32", "axis": [3], "momentum": 0.99, "epsilon": 0.001, "center": true, "scale": true, "beta_initializer": {"module": "keras.initializers", "class_name": "Zeros", "config": {}, "registered_name": null}, "gamma_initializer": {"module": "keras.initializers", "class_name": "Ones", "config": {}, "registered_name": null}, "moving_mean_initializer": {"module": "keras.initializers", "class_name": "Zeros", "config": {}, "registered_name": null}, "moving_variance_initializer": {"module": "keras.initializers", "class_name": "Ones", "config": {}, "registered_name": null}, "beta_regularizer": null, "gamma_regularizer": null, "beta_constraint": null, "gamma_constraint": null}, "name": "batch_normalization_306", "inbound_nodes": [[["depthwise_conv2d_98", 0, 0, {}]]]}, {"class_name": "ReLU", "config": {"name": "re_lu_208", "trainable": true, "dtype": "float32", "max_value": null, "negative_slope": 0.0, "threshold": 0.0}, "name": "re_lu_208", "inbound_nodes": [[["batch_normalization_306", 0, 0, {}]]]}, {"class_name": "Conv2D", "config": {"name": "conv2d_208", "trainable": true, "dtype": "float32", "filters": 160, "kernel_size": [1, 1], "strides": [1, 1], "padding": "same", "data_format": "channels_last", "dilation_rate": [1, 1], "groups": 1, "activation": "linear", "use_bias": true, "kernel_initializer": {"module": "keras.initializers", "class_name": "GlorotUniform", "config": {"seed": null}, "registered_name": null}, "bias_initializer": {"module": "keras.initializers", "class_name": "Zeros", "config": {}, "registered_name": null}, "kernel_regularizer": null, "bias_regularizer": null, "activity_regularizer": null, "kernel_constraint": null, "bias_constraint": null}, "name": "conv2d_208", "inbound_nodes": [[["re_lu_208", 0, 0, {}]]]}, {"class_name": "BatchNormalization", "config": {"name": "batch_normalization_307", "trainable": true, "dtype": "float32", "axis": [3], "momentum": 0.99, "epsilon": 0.001, "center": true, "scale": true, "beta_initializer": {"module": "keras.initializers", "class_name": "Zeros", "config": {}, "registered_name": null}, "gamma_initializer": {"module": "keras.initializers", "class_name": "Ones", "config": {}, "registered_name": null}, "moving_mean_initializer": {"module": "keras.initializers", "class_name": "Zeros", "config": {}, "registered_name": null}, "moving_variance_initializer": {"module": "keras.initializers", "class_name": "Ones", "config": {}, "registered_name": null}, "beta_regularizer": null, "gamma_regularizer": null, "beta_constraint": null, "gamma_constraint": null}, "name": "batch_normalization_307", "inbound_nodes": [[["conv2d_208", 0, 0, {}]]]}, {"class_name": "Conv2D", "config": {"name": "conv2d_209", "trainable": true, "dtype": "float32", "filters": 960, "kernel_size": [1, 1], "strides": [1, 1], "padding": "same", "data_format": "channels_last", "dilation_rate": [1, 1], "groups": 1, "activation": "linear", "use_bias": true, "kernel_initializer": {"module": "keras.initializers", "class_name": "GlorotUniform", "config": {"seed": null}, "registered_name": null}, "bias_initializer": {"module": "keras.initializers", "class_name": "Zeros", "config": {}, "registered_name": null}, "kernel_regularizer": null, "bias_regularizer": null, "activity_regularizer": null, "kernel_constraint": null, "bias_constraint": null}, "name": "conv2d_209", "inbound_nodes": [[["batch_normalization_307", 0, 0, {}]]]}, {"class_name": "BatchNormalization", "config": {"name": "batch_normalization_308", "trainable": true, "dtype": "float32", "axis": [3], "momentum": 0.99, "epsilon": 0.001, "center": true, "scale": true, "beta_initializer": {"module": "keras.initializers", "class_name": "Zeros", "config": {}, "registered_name": null}, "gamma_initializer": {"module": "keras.initializers", "class_name": "Ones", "config": {}, "registered_name": null}, "moving_mean_initializer": {"module": "keras.initializers", "class_name": "Zeros", "config": {}, "registered_name": null}, "moving_variance_initializer": {"module": "keras.initializers", "class_name": "Ones", "config": {}, "registered_name": null}, "beta_regularizer": null, "gamma_regularizer": null, "beta_constraint": null, "gamma_constraint": null}, "name": "batch_normalization_308", "inbound_nodes": [[["conv2d_209", 0, 0, {}]]]}, {"class_name": "ReLU", "config": {"name": "re_lu_209", "trainable": true, "dtype": "float32", "max_value": null, "negative_slope": 0.0, "threshold": 0.0}, "name": "re_lu_209", "inbound_nodes": [[["batch_normalization_308", 0, 0, {}]]]}, {"class_name": "DepthwiseConv2D", "config": {"name": "depthwise_conv2d_99", "trainable": true, "dtype": "float32", "kernel_size": [3, 3], "strides": [1, 1], "padding": "same", "data_format": "channels_last", "dilation_rate": [1, 1], "groups": 1, "activation": "linear", "use_bias": true, "bias_initializer": {"module": "keras.initializers", "class_name": "Zeros", "config": {}, "registered_name": null}, "bias_regularizer": null, "activity_regularizer": null, "bias_constraint": null, "depth_multiplier": 1, "depthwise_initializer": {"module": "keras.initializers", "class_name": "GlorotUniform", "config": {"seed": null}, "registered_name": null}, "depthwise_regularizer": null, "depthwise_constraint": null}, "name": "depthwise_conv2d_99", "inbound_nodes": [[["re_lu_209", 0, 0, {}]]]}, {"class_name": "BatchNormalization", "config": {"name": "batch_normalization_309", "trainable": true, "dtype": "float32", "axis": [3], "momentum": 0.99, "epsilon": 0.001, "center": true, "scale": true, "beta_initializer": {"module": "keras.initializers", "class_name": "Zeros", "config": {}, "registered_name": null}, "gamma_initializer": {"module": "keras.initializers", "class_name": "Ones", "config": {}, "registered_name": null}, "moving_mean_initializer": {"module": "keras.initializers", "class_name": "Zeros", "config": {}, "registered_name": null}, "moving_variance_initializer": {"module": "keras.initializers", "class_name": "Ones", "config": {}, "registered_name": null}, "beta_regularizer": null, "gamma_regularizer": null, "beta_constraint": null, "gamma_constraint": null}, "name": "batch_normalization_309", "inbound_nodes": [[["depthwise_conv2d_99", 0, 0, {}]]]}, {"class_name": "ReLU", "config": {"name": "re_lu_210", "trainable": true, "dtype": "float32", "max_value": null, "negative_slope": 0.0, "threshold": 0.0}, "name": "re_lu_210", "inbound_nodes": [[["batch_normalization_309", 0, 0, {}]]]}, {"class_name": "Conv2D", "config": {"name": "conv2d_210", "trainable": true, "dtype": "float32", "filters": 160, "kernel_size": [1, 1], "strides": [1, 1], "padding": "same", "data_format": "channels_last", "dilation_rate": [1, 1], "groups": 1, "activation": "linear", "use_bias": true, "kernel_initializer": {"module": "keras.initializers", "class_name": "GlorotUniform", "config": {"seed": null}, "registered_name": null}, "bias_initializer": {"module": "keras.initializers", "class_name": "Zeros", "config": {}, "registered_name": null}, "kernel_regularizer": null, "bias_regularizer": null, "activity_regularizer": null, "kernel_constraint": null, "bias_constraint": null}, "name": "conv2d_210", "inbound_nodes": [[["re_lu_210", 0, 0, {}]]]}, {"class_name": "BatchNormalization", "config": {"name": "batch_normalization_310", "trainable": true, "dtype": "float32", "axis": [3], "momentum": 0.99, "epsilon": 0.001, "center": true, "scale": true, "beta_initializer": {"module": "keras.initializers", "class_name": "Zeros", "config": {}, "registered_name": null}, "gamma_initializer": {"module": "keras.initializers", "class_name": "Ones", "config": {}, "registered_name": null}, "moving_mean_initializer": {"module": "keras.initializers", "class_name": "Zeros", "config": {}, "registered_name": null}, "moving_variance_initializer": {"module": "keras.initializers", "class_name": "Ones", "config": {}, "registered_name": null}, "beta_regularizer": null, "gamma_regularizer": null, "beta_constraint": null, "gamma_constraint": null}, "name": "batch_normalization_310", "inbound_nodes": [[["conv2d_210", 0, 0, {}]]]}, {"class_name": "Add", "config": {"name": "add_58", "trainable": true, "dtype": "float32"}, "name": "add_58", "inbound_nodes": [[["batch_normalization_307", 0, 0, {}], ["batch_normalization_310", 0, 0, {}]]]}, {"class_name": "Conv2D", "config": {"name": "conv2d_211", "trainable": true, "dtype": "float32", "filters": 960, "kernel_size": [1, 1], "strides": [1, 1], "padding": "same", "data_format": "channels_last", "dilation_rate": [1, 1], "groups": 1, "activation": "linear", "use_bias": true, "kernel_initializer": {"module": "keras.initializers", "class_name": "GlorotUniform", "config": {"seed": null}, "registered_name": null}, "bias_initializer": {"module": "keras.initializers", "class_name": "Zeros", "config": {}, "registered_name": null}, "kernel_regularizer": null, "bias_regularizer": null, "activity_regularizer": null, "kernel_constraint": null, "bias_constraint": null}, "name": "conv2d_211", "inbound_nodes": [[["add_58", 0, 0, {}]]]}, {"class_name": "BatchNormalization", "config": {"name": "batch_normalization_311", "trainable": true, "dtype": "float32", "axis": [3], "momentum": 0.99, "epsilon": 0.001, "center": true, "scale": true, "beta_initializer": {"module": "keras.initializers", "class_name": "Zeros", "config": {}, "registered_name": null}, "gamma_initializer": {"module": "keras.initializers", "class_name": "Ones", "config": {}, "registered_name": null}, "moving_mean_initializer": {"module": "keras.initializers", "class_name": "Zeros", "config": {}, "registered_name": null}, "moving_variance_initializer": {"module": "keras.initializers", "class_name": "Ones", "config": {}, "registered_name": null}, "beta_regularizer": null, "gamma_regularizer": null, "beta_constraint": null, "gamma_constraint": null}, "name": "batch_normalization_311", "inbound_nodes": [[["conv2d_211", 0, 0, {}]]]}, {"class_name": "ReLU", "config": {"name": "re_lu_211", "trainable": true, "dtype": "float32", "max_value": null, "negative_slope": 0.0, "threshold": 0.0}, "name": "re_lu_211", "inbound_nodes": [[["batch_normalization_311", 0, 0, {}]]]}, {"class_name": "DepthwiseConv2D", "config": {"name": "depthwise_conv2d_100", "trainable": true, "dtype": "float32", "kernel_size": [3, 3], "strides": [1, 1], "padding": "same", "data_format": "channels_last", "dilation_rate": [1, 1], "groups": 1, "activation": "linear", "use_bias": true, "bias_initializer": {"module": "keras.initializers", "class_name": "Zeros", "config": {}, "registered_name": null}, "bias_regularizer": null, "activity_regularizer": null, "bias_constraint": null, "depth_multiplier": 1, "depthwise_initializer": {"module": "keras.initializers", "class_name": "GlorotUniform", "config": {"seed": null}, "registered_name": null}, "depthwise_regularizer": null, "depthwise_constraint": null}, "name": "depthwise_conv2d_100", "inbound_nodes": [[["re_lu_211", 0, 0, {}]]]}, {"class_name": "BatchNormalization", "config": {"name": "batch_normalization_312", "trainable": true, "dtype": "float32", "axis": [3], "momentum": 0.99, "epsilon": 0.001, "center": true, "scale": true, "beta_initializer": {"module": "keras.initializers", "class_name": "Zeros", "config": {}, "registered_name": null}, "gamma_initializer": {"module": "keras.initializers", "class_name": "Ones", "config": {}, "registered_name": null}, "moving_mean_initializer": {"module": "keras.initializers", "class_name": "Zeros", "config": {}, "registered_name": null}, "moving_variance_initializer": {"module": "keras.initializers", "class_name": "Ones", "config": {}, "registered_name": null}, "beta_regularizer": null, "gamma_regularizer": null, "beta_constraint": null, "gamma_constraint": null}, "name": "batch_normalization_312", "inbound_nodes": [[["depthwise_conv2d_100", 0, 0, {}]]]}, {"class_name": "ReLU", "config": {"name": "re_lu_212", "trainable": true, "dtype": "float32", "max_value": null, "negative_slope": 0.0, "threshold": 0.0}, "name": "re_lu_212", "inbound_nodes": [[["batch_normalization_312", 0, 0, {}]]]}, {"class_name": "Conv2D", "config": {"name": "conv2d_212", "trainable": true, "dtype": "float32", "filters": 160, "kernel_size": [1, 1], "strides": [1, 1], "padding": "same", "data_format": "channels_last", "dilation_rate": [1, 1], "groups": 1, "activation": "linear", "use_bias": true, "kernel_initializer": {"module": "keras.initializers", "class_name": "GlorotUniform", "config": {"seed": null}, "registered_name": null}, "bias_initializer": {"module": "keras.initializers", "class_name": "Zeros", "config": {}, "registered_name": null}, "kernel_regularizer": null, "bias_regularizer": null, "activity_regularizer": null, "kernel_constraint": null, "bias_constraint": null}, "name": "conv2d_212", "inbound_nodes": [[["re_lu_212", 0, 0, {}]]]}, {"class_name": "BatchNormalization", "config": {"name": "batch_normalization_313", "trainable": true, "dtype": "float32", "axis": [3], "momentum": 0.99, "epsilon": 0.001, "center": true, "scale": true, "beta_initializer": {"module": "keras.initializers", "class_name": "Zeros", "config": {}, "registered_name": null}, "gamma_initializer": {"module": "keras.initializers", "class_name": "Ones", "config": {}, "registered_name": null}, "moving_mean_initializer": {"module": "keras.initializers", "class_name": "Zeros", "config": {}, "registered_name": null}, "moving_variance_initializer": {"module": "keras.initializers", "class_name": "Ones", "config": {}, "registered_name": null}, "beta_regularizer": null, "gamma_regularizer": null, "beta_constraint": null, "gamma_constraint": null}, "name": "batch_normalization_313", "inbound_nodes": [[["conv2d_212", 0, 0, {}]]]}, {"class_name": "Add", "config": {"name": "add_59", "trainable": true, "dtype": "float32"}, "name": "add_59", "inbound_nodes": [[["add_58", 0, 0, {}], ["batch_normalization_313", 0, 0, {}]]]}, {"class_name": "Conv2D", "config": {"name": "conv2d_213", "trainable": true, "dtype": "float32", "filters": 960, "kernel_size": [1, 1], "strides": [1, 1], "padding": "same", "data_format": "channels_last", "dilation_rate": [1, 1], "groups": 1, "activation": "linear", "use_bias": true, "kernel_initializer": {"module": "keras.initializers", "class_name": "GlorotUniform", "config": {"seed": null}, "registered_name": null}, "bias_initializer": {"module": "keras.initializers", "class_name": "Zeros", "config": {}, "registered_name": null}, "kernel_regularizer": null, "bias_regularizer": null, "activity_regularizer": null, "kernel_constraint": null, "bias_constraint": null}, "name": "conv2d_213", "inbound_nodes": [[["add_59", 0, 0, {}]]]}, {"class_name": "BatchNormalization", "config": {"name": "batch_normalization_314", "trainable": true, "dtype": "float32", "axis": [3], "momentum": 0.99, "epsilon": 0.001, "center": true, "scale": true, "beta_initializer": {"module": "keras.initializers", "class_name": "Zeros", "config": {}, "registered_name": null}, "gamma_initializer": {"module": "keras.initializers", "class_name": "Ones", "config": {}, "registered_name": null}, "moving_mean_initializer": {"module": "keras.initializers", "class_name": "Zeros", "config": {}, "registered_name": null}, "moving_variance_initializer": {"module": "keras.initializers", "class_name": "Ones", "config": {}, "registered_name": null}, "beta_regularizer": null, "gamma_regularizer": null, "beta_constraint": null, "gamma_constraint": null}, "name": "batch_normalization_314", "inbound_nodes": [[["conv2d_213", 0, 0, {}]]]}, {"class_name": "ReLU", "config": {"name": "re_lu_213", "trainable": true, "dtype": "float32", "max_value": null, "negative_slope": 0.0, "threshold": 0.0}, "name": "re_lu_213", "inbound_nodes": [[["batch_normalization_314", 0, 0, {}]]]}, {"class_name": "DepthwiseConv2D", "config": {"name": "depthwise_conv2d_101", "trainable": true, "dtype": "float32", "kernel_size": [3, 3], "strides": [1, 1], "padding": "same", "data_format": "channels_last", "dilation_rate": [1, 1], "groups": 1, "activation": "linear", "use_bias": true, "bias_initializer": {"module": "keras.initializers", "class_name": "Zeros", "config": {}, "registered_name": null}, "bias_regularizer": null, "activity_regularizer": null, "bias_constraint": null, "depth_multiplier": 1, "depthwise_initializer": {"module": "keras.initializers", "class_name": "GlorotUniform", "config": {"seed": null}, "registered_name": null}, "depthwise_regularizer": null, "depthwise_constraint": null}, "name": "depthwise_conv2d_101", "inbound_nodes": [[["re_lu_213", 0, 0, {}]]]}, {"class_name": "BatchNormalization", "config": {"name": "batch_normalization_315", "trainable": true, "dtype": "float32", "axis": [3], "momentum": 0.99, "epsilon": 0.001, "center": true, "scale": true, "beta_initializer": {"module": "keras.initializers", "class_name": "Zeros", "config": {}, "registered_name": null}, "gamma_initializer": {"module": "keras.initializers", "class_name": "Ones", "config": {}, "registered_name": null}, "moving_mean_initializer": {"module": "keras.initializers", "class_name": "Zeros", "config": {}, "registered_name": null}, "moving_variance_initializer": {"module": "keras.initializers", "class_name": "Ones", "config": {}, "registered_name": null}, "beta_regularizer": null, "gamma_regularizer": null, "beta_constraint": null, "gamma_constraint": null}, "name": "batch_normalization_315", "inbound_nodes": [[["depthwise_conv2d_101", 0, 0, {}]]]}, {"class_name": "ReLU", "config": {"name": "re_lu_214", "trainable": true, "dtype": "float32", "max_value": null, "negative_slope": 0.0, "threshold": 0.0}, "name": "re_lu_214", "inbound_nodes": [[["batch_normalization_315", 0, 0, {}]]]}, {"class_name": "Conv2D", "config": {"name": "conv2d_214", "trainable": true, "dtype": "float32", "filters": 320, "kernel_size": [1, 1], "strides": [1, 1], "padding": "same", "data_format": "channels_last", "dilation_rate": [1, 1], "groups": 1, "activation": "linear", "use_bias": true, "kernel_initializer": {"module": "keras.initializers", "class_name": "GlorotUniform", "config": {"seed": null}, "registered_name": null}, "bias_initializer": {"module": "keras.initializers", "class_name": "Zeros", "config": {}, "registered_name": null}, "kernel_regularizer": null, "bias_regularizer": null, "activity_regularizer": null, "kernel_constraint": null, "bias_constraint": null}, "name": "conv2d_214", "inbound_nodes": [[["re_lu_214", 0, 0, {}]]]}, {"class_name": "BatchNormalization", "config": {"name": "batch_normalization_316", "trainable": true, "dtype": "float32", "axis": [3], "momentum": 0.99, "epsilon": 0.001, "center": true, "scale": true, "beta_initializer": {"module": "keras.initializers", "class_name": "Zeros", "config": {}, "registered_name": null}, "gamma_initializer": {"module": "keras.initializers", "class_name": "Ones", "config": {}, "registered_name": null}, "moving_mean_initializer": {"module": "keras.initializers", "class_name": "Zeros", "config": {}, "registered_name": null}, "moving_variance_initializer": {"module": "keras.initializers", "class_name": "Ones", "config": {}, "registered_name": null}, "beta_regularizer": null, "gamma_regularizer": null, "beta_constraint": null, "gamma_constraint": null}, "name": "batch_normalization_316", "inbound_nodes": [[["conv2d_214", 0, 0, {}]]]}, {"class_name": "Conv2D", "config": {"name": "conv2d_215", "trainable": true, "dtype": "float32", "filters": 1280, "kernel_size": [1, 1], "strides": [1, 1], "padding": "same", "data_format": "channels_last", "dilation_rate": [1, 1], "groups": 1, "activation": "linear", "use_bias": true, "kernel_initializer": {"module": "keras.initializers", "class_name": "GlorotUniform", "config": {"seed": null}, "registered_name": null}, "bias_initializer": {"module": "keras.initializers", "class_name": "Zeros", "config": {}, "registered_name": null}, "kernel_regularizer": null, "bias_regularizer": null, "activity_regularizer": null, "kernel_constraint": null, "bias_constraint": null}, "name": "conv2d_215", "inbound_nodes": [[["batch_normalization_316", 0, 0, {}]]]}, {"class_name": "BatchNormalization", "config": {"name": "batch_normalization_317", "trainable": true, "dtype": "float32", "axis": [3], "momentum": 0.99, "epsilon": 0.001, "center": true, "scale": true, "beta_initializer": {"module": "keras.initializers", "class_name": "Zeros", "config": {}, "registered_name": null}, "gamma_initializer": {"module": "keras.initializers", "class_name": "Ones", "config": {}, "registered_name": null}, "moving_mean_initializer": {"module": "keras.initializers", "class_name": "Zeros", "config": {}, "registered_name": null}, "moving_variance_initializer": {"module": "keras.initializers", "class_name": "Ones", "config": {}, "registered_name": null}, "beta_regularizer": null, "gamma_regularizer": null, "beta_constraint": null, "gamma_constraint": null}, "name": "batch_normalization_317", "inbound_nodes": [[["conv2d_215", 0, 0, {}]]]}, {"class_name": "ReLU", "config": {"name": "re_lu_215", "trainable": true, "dtype": "float32", "max_value": null, "negative_slope": 0.0, "threshold": 0.0}, "name": "re_lu_215", "inbound_nodes": [[["batch_normalization_317", 0, 0, {}]]]}, {"class_name": "GlobalAveragePooling2D", "config": {"name": "global_average_pooling2d_5", "trainable": true, "dtype": "float32", "data_format": "channels_last", "keepdims": false}, "name": "global_average_pooling2d_5", "inbound_nodes": [[["re_lu_215", 0, 0, {}]]]}, {"class_name": "Dropout", "config": {"name": "dropout_5", "trainable": true, "dtype": "float32", "rate": 0.75, "noise_shape": null, "seed": null}, "name": "dropout_5", "inbound_nodes": [[["global_average_pooling2d_5", 0, 0, {}]]]}, {"class_name": "Dense", "config": {"name": "dense_11", "trainable": true, "dtype": "float32", "units": 7, "activation": "softmax", "use_bias": true, "kernel_initializer": {"module": "keras.initializers", "class_name": "GlorotUniform", "config": {"seed": null}, "registered_name": null}, "bias_initializer": {"module": "keras.initializers", "class_name": "Zeros", "config": {}, "registered_name": null}, "kernel_regularizer": null, "bias_regularizer": null, "activity_regularizer": null, "kernel_constraint": null, "bias_constraint": null}, "name": "dense_11", "inbound_nodes": [[["dropout_5", 0, 0, {}]]]}], "input_layers": [["input_6", 0, 0]], "output_layers": [["dense_11", 0, 0]]}}, "training_config": {"loss": "categorical_crossentropy", "metrics": [[{"class_name": "MeanMetricWrapper", "config": {"name": "categorical_accuracy", "dtype": "float32", "fn": "categorical_accuracy"}}, {"class_name": "MeanMetricWrapper", "config": {"name": "top_2_accuracy", "dtype": "float32", "fn": "top_2_accuracy"}}, {"class_name": "MeanMetricWrapper", "config": {"name": "top_3_accuracy", "dtype": "float32", "fn": "top_3_accuracy"}}]], "weighted_metrics": null, "loss_weights": null, "optimizer_config": {"class_name": "Custom>Adam", "config": {"name": "Adam", "weight_decay": null, "clipnorm": null, "global_clipnorm": null, "clipvalue": null, "use_ema": false, "ema_momentum": 0.99, "ema_overwrite_frequency": null, "jit_compile": true, "is_legacy_optimizer": false, "learning_rate": 0.0010000000474974513, "beta_1": 0.9, "beta_2": 0.999, "epsilon": 1e-07, "amsgrad": false}}}}, "weightsManifest": [{"paths": ["group1-shard1of3.bin", "group1-shard2of3.bin", "group1-shard3of3.bin"], "weights": [{"name": "batch_normalization_265/gamma", "shape": [32], "dtype": "float32"}, {"name": "batch_normalization_265/beta", "shape": [32], "dtype": "float32"}, {"name": "batch_normalization_265/moving_mean", "shape": [32], "dtype": "float32"}, {"name": "batch_normalization_265/moving_variance", "shape": [32], "dtype": "float32"}, {"name": "batch_normalization_266/gamma", "shape": [32], "dtype": "float32"}, {"name": "batch_normalization_266/beta", "shape": [32], "dtype": "float32"}, {"name": "batch_normalization_266/moving_mean", "shape": [32], "dtype": "float32"}, {"name": "batch_normalization_266/moving_variance", "shape": [32], "dtype": "float32"}, {"name": "batch_normalization_267/gamma", "shape": [32], "dtype": "float32"}, {"name": "batch_normalization_267/beta", "shape": [32], "dtype": "float32"}, {"name": "batch_normalization_267/moving_mean", "shape": [32], "dtype": "float32"}, {"name": "batch_normalization_267/moving_variance", "shape": [32], "dtype": "float32"}, {"name": "batch_normalization_268/gamma", "shape": [16], "dtype": "float32"}, {"name": "batch_normalization_268/beta", "shape": [16], "dtype": "float32"}, {"name": "batch_normalization_268/moving_mean", "shape": [16], "dtype": "float32"}, {"name": "batch_normalization_268/moving_variance", "shape": [16], "dtype": "float32"}, {"name": "batch_normalization_269/gamma", "shape": [96], "dtype": "float32"}, {"name": "batch_normalization_269/beta", "shape": [96], "dtype": "float32"}, {"name": "batch_normalization_269/moving_mean", "shape": [96], "dtype": "float32"}, {"name": "batch_normalization_269/moving_variance", "shape": [96], "dtype": "float32"}, {"name": "batch_normalization_270/gamma", "shape": [96], "dtype": "float32"}, {"name": "batch_normalization_270/beta", "shape": [96], "dtype": "float32"}, {"name": "batch_normalization_270/moving_mean", "shape": [96], "dtype": "float32"}, {"name": "batch_normalization_270/moving_variance", "shape": [96], "dtype": "float32"}, {"name": "batch_normalization_271/gamma", "shape": [24], "dtype": "float32"}, {"name": "batch_normalization_271/beta", "shape": [24], "dtype": "float32"}, {"name": "batch_normalization_271/moving_mean", "shape": [24], "dtype": "float32"}, {"name": "batch_normalization_271/moving_variance", "shape": [24], "dtype": "float32"}, {"name": "batch_normalization_272/gamma", "shape": [144], "dtype": "float32"}, {"name": "batch_normalization_272/beta", "shape": [144], "dtype": "float32"}, {"name": "batch_normalization_272/moving_mean", "shape": [144], "dtype": "float32"}, {"name": "batch_normalization_272/moving_variance", "shape": [144], "dtype": "float32"}, {"name": "batch_normalization_273/gamma", "shape": [144], "dtype": "float32"}, {"name": "batch_normalization_273/beta", "shape": [144], "dtype": "float32"}, {"name": "batch_normalization_273/moving_mean", "shape": [144], "dtype": "float32"}, {"name": "batch_normalization_273/moving_variance", "shape": [144], "dtype": "float32"}, {"name": "batch_normalization_274/gamma", "shape": [24], "dtype": "float32"}, {"name": "batch_normalization_274/beta", "shape": [24], "dtype": "float32"}, {"name": "batch_normalization_274/moving_mean", "shape": [24], "dtype": "float32"}, {"name": "batch_normalization_274/moving_variance", "shape": [24], "dtype": "float32"}, {"name": "batch_normalization_275/gamma", "shape": [144], "dtype": "float32"}, {"name": "batch_normalization_275/beta", "shape": [144], "dtype": "float32"}, {"name": "batch_normalization_275/moving_mean", "shape": [144], "dtype": "float32"}, {"name": "batch_normalization_275/moving_variance", "shape": [144], "dtype": "float32"}, {"name": "batch_normalization_276/gamma", "shape": [144], "dtype": "float32"}, {"name": "batch_normalization_276/beta", "shape": [144], "dtype": "float32"}, {"name": "batch_normalization_276/moving_mean", "shape": [144], "dtype": "float32"}, {"name": "batch_normalization_276/moving_variance", "shape": [144], "dtype": "float32"}, {"name": "batch_normalization_277/gamma", "shape": [32], "dtype": "float32"}, {"name": "batch_normalization_277/beta", "shape": [32], "dtype": "float32"}, {"name": "batch_normalization_277/moving_mean", "shape": [32], "dtype": "float32"}, {"name": "batch_normalization_277/moving_variance", "shape": [32], "dtype": "float32"}, {"name": "batch_normalization_278/gamma", "shape": [192], "dtype": "float32"}, {"name": "batch_normalization_278/beta", "shape": [192], "dtype": "float32"}, {"name": "batch_normalization_278/moving_mean", "shape": [192], "dtype": "float32"}, {"name": "batch_normalization_278/moving_variance", "shape": [192], "dtype": "float32"}, {"name": "batch_normalization_279/gamma", "shape": [192], "dtype": "float32"}, {"name": "batch_normalization_279/beta", "shape": [192], "dtype": "float32"}, {"name": "batch_normalization_279/moving_mean", "shape": [192], "dtype": "float32"}, {"name": "batch_normalization_279/moving_variance", "shape": [192], "dtype": "float32"}, {"name": "batch_normalization_280/gamma", "shape": [32], "dtype": "float32"}, {"name": "batch_normalization_280/beta", "shape": [32], "dtype": "float32"}, {"name": "batch_normalization_280/moving_mean", "shape": [32], "dtype": "float32"}, {"name": "batch_normalization_280/moving_variance", "shape": [32], "dtype": "float32"}, {"name": "batch_normalization_281/gamma", "shape": [192], "dtype": "float32"}, {"name": "batch_normalization_281/beta", "shape": [192], "dtype": "float32"}, {"name": "batch_normalization_281/moving_mean", "shape": [192], "dtype": "float32"}, {"name": "batch_normalization_281/moving_variance", "shape": [192], "dtype": "float32"}, {"name": "batch_normalization_282/gamma", "shape": [192], "dtype": "float32"}, {"name": "batch_normalization_282/beta", "shape": [192], "dtype": "float32"}, {"name": "batch_normalization_282/moving_mean", "shape": [192], "dtype": "float32"}, {"name": "batch_normalization_282/moving_variance", "shape": [192], "dtype": "float32"}, {"name": "batch_normalization_283/gamma", "shape": [32], "dtype": "float32"}, {"name": "batch_normalization_283/beta", "shape": [32], "dtype": "float32"}, {"name": "batch_normalization_283/moving_mean", "shape": [32], "dtype": "float32"}, {"name": "batch_normalization_283/moving_variance", "shape": [32], "dtype": "float32"}, {"name": "batch_normalization_284/gamma", "shape": [192], "dtype": "float32"}, {"name": "batch_normalization_284/beta", "shape": [192], "dtype": "float32"}, {"name": "batch_normalization_284/moving_mean", "shape": [192], "dtype": "float32"}, {"name": "batch_normalization_284/moving_variance", "shape": [192], "dtype": "float32"}, {"name": "batch_normalization_285/gamma", "shape": [192], "dtype": "float32"}, {"name": "batch_normalization_285/beta", "shape": [192], "dtype": "float32"}, {"name": "batch_normalization_285/moving_mean", "shape": [192], "dtype": "float32"}, {"name": "batch_normalization_285/moving_variance", "shape": [192], "dtype": "float32"}, {"name": "batch_normalization_286/gamma", "shape": [64], "dtype": "float32"}, {"name": "batch_normalization_286/beta", "shape": [64], "dtype": "float32"}, {"name": "batch_normalization_286/moving_mean", "shape": [64], "dtype": "float32"}, {"name": "batch_normalization_286/moving_variance", "shape": [64], "dtype": "float32"}, {"name": "batch_normalization_287/gamma", "shape": [384], "dtype": "float32"}, {"name": "batch_normalization_287/beta", "shape": [384], "dtype": "float32"}, {"name": "batch_normalization_287/moving_mean", "shape": [384], "dtype": "float32"}, {"name": "batch_normalization_287/moving_variance", "shape": [384], "dtype": "float32"}, {"name": "batch_normalization_288/gamma", "shape": [384], "dtype": "float32"}, {"name": "batch_normalization_288/beta", "shape": [384], "dtype": "float32"}, {"name": "batch_normalization_288/moving_mean", "shape": [384], "dtype": "float32"}, {"name": "batch_normalization_288/moving_variance", "shape": [384], "dtype": "float32"}, {"name": "batch_normalization_289/gamma", "shape": [64], "dtype": "float32"}, {"name": "batch_normalization_289/beta", "shape": [64], "dtype": "float32"}, {"name": "batch_normalization_289/moving_mean", "shape": [64], "dtype": "float32"}, {"name": "batch_normalization_289/moving_variance", "shape": [64], "dtype": "float32"}, {"name": "batch_normalization_290/gamma", "shape": [384], "dtype": "float32"}, {"name": "batch_normalization_290/beta", "shape": [384], "dtype": "float32"}, {"name": "batch_normalization_290/moving_mean", "shape": [384], "dtype": "float32"}, {"name": "batch_normalization_290/moving_variance", "shape": [384], "dtype": "float32"}, {"name": "batch_normalization_291/gamma", "shape": [384], "dtype": "float32"}, {"name": "batch_normalization_291/beta", "shape": [384], "dtype": "float32"}, {"name": "batch_normalization_291/moving_mean", "shape": [384], "dtype": "float32"}, {"name": "batch_normalization_291/moving_variance", "shape": [384], "dtype": "float32"}, {"name": "batch_normalization_292/gamma", "shape": [64], "dtype": "float32"}, {"name": "batch_normalization_292/beta", "shape": [64], "dtype": "float32"}, {"name": "batch_normalization_292/moving_mean", "shape": [64], "dtype": "float32"}, {"name": "batch_normalization_292/moving_variance", "shape": [64], "dtype": "float32"}, {"name": "batch_normalization_293/gamma", "shape": [384], "dtype": "float32"}, {"name": "batch_normalization_293/beta", "shape": [384], "dtype": "float32"}, {"name": "batch_normalization_293/moving_mean", "shape": [384], "dtype": "float32"}, {"name": "batch_normalization_293/moving_variance", "shape": [384], "dtype": "float32"}, {"name": "batch_normalization_294/gamma", "shape": [384], "dtype": "float32"}, {"name": "batch_normalization_294/beta", "shape": [384], "dtype": "float32"}, {"name": "batch_normalization_294/moving_mean", "shape": [384], "dtype": "float32"}, {"name": "batch_normalization_294/moving_variance", "shape": [384], "dtype": "float32"}, {"name": "batch_normalization_295/gamma", "shape": [64], "dtype": "float32"}, {"name": "batch_normalization_295/beta", "shape": [64], "dtype": "float32"}, {"name": "batch_normalization_295/moving_mean", "shape": [64], "dtype": "float32"}, {"name": "batch_normalization_295/moving_variance", "shape": [64], "dtype": "float32"}, {"name": "batch_normalization_296/gamma", "shape": [384], "dtype": "float32"}, {"name": "batch_normalization_296/beta", "shape": [384], "dtype": "float32"}, {"name": "batch_normalization_296/moving_mean", "shape": [384], "dtype": "float32"}, {"name": "batch_normalization_296/moving_variance", "shape": [384], "dtype": "float32"}, {"name": "batch_normalization_297/gamma", "shape": [384], "dtype": "float32"}, {"name": "batch_normalization_297/beta", "shape": [384], "dtype": "float32"}, {"name": "batch_normalization_297/moving_mean", "shape": [384], "dtype": "float32"}, {"name": "batch_normalization_297/moving_variance", "shape": [384], "dtype": "float32"}, {"name": "batch_normalization_298/gamma", "shape": [96], "dtype": "float32"}, {"name": "batch_normalization_298/beta", "shape": [96], "dtype": "float32"}, {"name": "batch_normalization_298/moving_mean", "shape": [96], "dtype": "float32"}, {"name": "batch_normalization_298/moving_variance", "shape": [96], "dtype": "float32"}, {"name": "batch_normalization_299/gamma", "shape": [576], "dtype": "float32"}, {"name": "batch_normalization_299/beta", "shape": [576], "dtype": "float32"}, {"name": "batch_normalization_299/moving_mean", "shape": [576], "dtype": "float32"}, {"name": "batch_normalization_299/moving_variance", "shape": [576], "dtype": "float32"}, {"name": "batch_normalization_300/gamma", "shape": [576], "dtype": "float32"}, {"name": "batch_normalization_300/beta", "shape": [576], "dtype": "float32"}, {"name": "batch_normalization_300/moving_mean", "shape": [576], "dtype": "float32"}, {"name": "batch_normalization_300/moving_variance", "shape": [576], "dtype": "float32"}, {"name": "batch_normalization_301/gamma", "shape": [96], "dtype": "float32"}, {"name": "batch_normalization_301/beta", "shape": [96], "dtype": "float32"}, {"name": "batch_normalization_301/moving_mean", "shape": [96], "dtype": "float32"}, {"name": "batch_normalization_301/moving_variance", "shape": [96], "dtype": "float32"}, {"name": "batch_normalization_302/gamma", "shape": [576], "dtype": "float32"}, {"name": "batch_normalization_302/beta", "shape": [576], "dtype": "float32"}, {"name": "batch_normalization_302/moving_mean", "shape": [576], "dtype": "float32"}, {"name": "batch_normalization_302/moving_variance", "shape": [576], "dtype": "float32"}, {"name": "batch_normalization_303/gamma", "shape": [576], "dtype": "float32"}, {"name": "batch_normalization_303/beta", "shape": [576], "dtype": "float32"}, {"name": "batch_normalization_303/moving_mean", "shape": [576], "dtype": "float32"}, {"name": "batch_normalization_303/moving_variance", "shape": [576], "dtype": "float32"}, {"name": "batch_normalization_304/gamma", "shape": [96], "dtype": "float32"}, {"name": "batch_normalization_304/beta", "shape": [96], "dtype": "float32"}, {"name": "batch_normalization_304/moving_mean", "shape": [96], "dtype": "float32"}, {"name": "batch_normalization_304/moving_variance", "shape": [96], "dtype": "float32"}, {"name": "batch_normalization_305/gamma", "shape": [576], "dtype": "float32"}, {"name": "batch_normalization_305/beta", "shape": [576], "dtype": "float32"}, {"name": "batch_normalization_305/moving_mean", "shape": [576], "dtype": "float32"}, {"name": "batch_normalization_305/moving_variance", "shape": [576], "dtype": "float32"}, {"name": "batch_normalization_306/gamma", "shape": [576], "dtype": "float32"}, {"name": "batch_normalization_306/beta", "shape": [576], "dtype": "float32"}, {"name": "batch_normalization_306/moving_mean", "shape": [576], "dtype": "float32"}, {"name": "batch_normalization_306/moving_variance", "shape": [576], "dtype": "float32"}, {"name": "batch_normalization_307/gamma", "shape": [160], "dtype": "float32"}, {"name": "batch_normalization_307/beta", "shape": [160], "dtype": "float32"}, {"name": "batch_normalization_307/moving_mean", "shape": [160], "dtype": "float32"}, {"name": "batch_normalization_307/moving_variance", "shape": [160], "dtype": "float32"}, {"name": "batch_normalization_308/gamma", "shape": [960], "dtype": "float32"}, {"name": "batch_normalization_308/beta", "shape": [960], "dtype": "float32"}, {"name": "batch_normalization_308/moving_mean", "shape": [960], "dtype": "float32"}, {"name": "batch_normalization_308/moving_variance", "shape": [960], "dtype": "float32"}, {"name": "batch_normalization_309/gamma", "shape": [960], "dtype": "float32"}, {"name": "batch_normalization_309/beta", "shape": [960], "dtype": "float32"}, {"name": "batch_normalization_309/moving_mean", "shape": [960], "dtype": "float32"}, {"name": "batch_normalization_309/moving_variance", "shape": [960], "dtype": "float32"}, {"name": "batch_normalization_310/gamma", "shape": [160], "dtype": "float32"}, {"name": "batch_normalization_310/beta", "shape": [160], "dtype": "float32"}, {"name": "batch_normalization_310/moving_mean", "shape": [160], "dtype": "float32"}, {"name": "batch_normalization_310/moving_variance", "shape": [160], "dtype": "float32"}, {"name": "batch_normalization_311/gamma", "shape": [960], "dtype": "float32"}, {"name": "batch_normalization_311/beta", "shape": [960], "dtype": "float32"}, {"name": "batch_normalization_311/moving_mean", "shape": [960], "dtype": "float32"}, {"name": "batch_normalization_311/moving_variance", "shape": [960], "dtype": "float32"}, {"name": "batch_normalization_312/gamma", "shape": [960], "dtype": "float32"}, {"name": "batch_normalization_312/beta", "shape": [960], "dtype": "float32"}, {"name": "batch_normalization_312/moving_mean", "shape": [960], "dtype": "float32"}, {"name": "batch_normalization_312/moving_variance", "shape": [960], "dtype": "float32"}, {"name": "batch_normalization_313/gamma", "shape": [160], "dtype": "float32"}, {"name": "batch_normalization_313/beta", "shape": [160], "dtype": "float32"}, {"name": "batch_normalization_313/moving_mean", "shape": [160], "dtype": "float32"}, {"name": "batch_normalization_313/moving_variance", "shape": [160], "dtype": "float32"}, {"name": "batch_normalization_314/gamma", "shape": [960], "dtype": "float32"}, {"name": "batch_normalization_314/beta", "shape": [960], "dtype": "float32"}, {"name": "batch_normalization_314/moving_mean", "shape": [960], "dtype": "float32"}, {"name": "batch_normalization_314/moving_variance", "shape": [960], "dtype": "float32"}, {"name": "batch_normalization_315/gamma", "shape": [960], "dtype": "float32"}, {"name": "batch_normalization_315/beta", "shape": [960], "dtype": "float32"}, {"name": "batch_normalization_315/moving_mean", "shape": [960], "dtype": "float32"}, {"name": "batch_normalization_315/moving_variance", "shape": [960], "dtype": "float32"}, {"name": "batch_normalization_316/gamma", "shape": [320], "dtype": "float32"}, {"name": "batch_normalization_316/beta", "shape": [320], "dtype": "float32"}, {"name": "batch_normalization_316/moving_mean", "shape": [320], "dtype": "float32"}, {"name": "batch_normalization_316/moving_variance", "shape": [320], "dtype": "float32"}, {"name": "batch_normalization_317/gamma", "shape": [1280], "dtype": "float32"}, {"name": "batch_normalization_317/beta", "shape": [1280], "dtype": "float32"}, {"name": "batch_normalization_317/moving_mean", "shape": [1280], "dtype": "float32"}, {"name": "batch_normalization_317/moving_variance", "shape": [1280], "dtype": "float32"}, {"name": "conv2d_180/kernel", "shape": [3, 3, 3, 32], "dtype": "float32"}, {"name": "conv2d_180/bias", "shape": [32], "dtype": "float32"}, {"name": "conv2d_181/kernel", "shape": [1, 1, 32, 32], "dtype": "float32"}, {"name": "conv2d_181/bias", "shape": [32], "dtype": "float32"}, {"name": "conv2d_182/kernel", "shape": [1, 1, 32, 16], "dtype": "float32"}, {"name": "conv2d_182/bias", "shape": [16], "dtype": "float32"}, {"name": "conv2d_183/kernel", "shape": [1, 1, 16, 96], "dtype": "float32"}, {"name": "conv2d_183/bias", "shape": [96], "dtype": "float32"}, {"name": "conv2d_184/kernel", "shape": [1, 1, 96, 24], "dtype": "float32"}, {"name": "conv2d_184/bias", "shape": [24], "dtype": "float32"}, {"name": "conv2d_185/kernel", "shape": [1, 1, 24, 144], "dtype": "float32"}, {"name": "conv2d_185/bias", "shape": [144], "dtype": "float32"}, {"name": "conv2d_186/kernel", "shape": [1, 1, 144, 24], "dtype": "float32"}, {"name": "conv2d_186/bias", "shape": [24], "dtype": "float32"}, {"name": "conv2d_187/kernel", "shape": [1, 1, 24, 144], "dtype": "float32"}, {"name": "conv2d_187/bias", "shape": [144], "dtype": "float32"}, {"name": "conv2d_188/kernel", "shape": [1, 1, 144, 32], "dtype": "float32"}, {"name": "conv2d_188/bias", "shape": [32], "dtype": "float32"}, {"name": "conv2d_189/kernel", "shape": [1, 1, 32, 192], "dtype": "float32"}, {"name": "conv2d_189/bias", "shape": [192], "dtype": "float32"}, {"name": "conv2d_190/kernel", "shape": [1, 1, 192, 32], "dtype": "float32"}, {"name": "conv2d_190/bias", "shape": [32], "dtype": "float32"}, {"name": "conv2d_191/kernel", "shape": [1, 1, 32, 192], "dtype": "float32"}, {"name": "conv2d_191/bias", "shape": [192], "dtype": "float32"}, {"name": "conv2d_192/kernel", "shape": [1, 1, 192, 32], "dtype": "float32"}, {"name": "conv2d_192/bias", "shape": [32], "dtype": "float32"}, {"name": "conv2d_193/kernel", "shape": [1, 1, 32, 192], "dtype": "float32"}, {"name": "conv2d_193/bias", "shape": [192], "dtype": "float32"}, {"name": "conv2d_194/kernel", "shape": [1, 1, 192, 64], "dtype": "float32"}, {"name": "conv2d_194/bias", "shape": [64], "dtype": "float32"}, {"name": "conv2d_195/kernel", "shape": [1, 1, 64, 384], "dtype": "float32"}, {"name": "conv2d_195/bias", "shape": [384], "dtype": "float32"}, {"name": "conv2d_196/kernel", "shape": [1, 1, 384, 64], "dtype": "float32"}, {"name": "conv2d_196/bias", "shape": [64], "dtype": "float32"}, {"name": "conv2d_197/kernel", "shape": [1, 1, 64, 384], "dtype": "float32"}, {"name": "conv2d_197/bias", "shape": [384], "dtype": "float32"}, {"name": "conv2d_198/kernel", "shape": [1, 1, 384, 64], "dtype": "float32"}, {"name": "conv2d_198/bias", "shape": [64], "dtype": "float32"}, {"name": "conv2d_199/kernel", "shape": [1, 1, 64, 384], "dtype": "float32"}, {"name": "conv2d_199/bias", "shape": [384], "dtype": "float32"}, {"name": "conv2d_200/kernel", "shape": [1, 1, 384, 64], "dtype": "float32"}, {"name": "conv2d_200/bias", "shape": [64], "dtype": "float32"}, {"name": "conv2d_201/kernel", "shape": [1, 1, 64, 384], "dtype": "float32"}, {"name": "conv2d_201/bias", "shape": [384], "dtype": "float32"}, {"name": "conv2d_202/kernel", "shape": [1, 1, 384, 96], "dtype": "float32"}, {"name": "conv2d_202/bias", "shape": [96], "dtype": "float32"}, {"name": "conv2d_203/kernel", "shape": [1, 1, 96, 576], "dtype": "float32"}, {"name": "conv2d_203/bias", "shape": [576], "dtype": "float32"}, {"name": "conv2d_204/kernel", "shape": [1, 1, 576, 96], "dtype": "float32"}, {"name": "conv2d_204/bias", "shape": [96], "dtype": "float32"}, {"name": "conv2d_205/kernel", "shape": [1, 1, 96, 576], "dtype": "float32"}, {"name": "conv2d_205/bias", "shape": [576], "dtype": "float32"}, {"name": "conv2d_206/kernel", "shape": [1, 1, 576, 96], "dtype": "float32"}, {"name": "conv2d_206/bias", "shape": [96], "dtype": "float32"}, {"name": "conv2d_207/kernel", "shape": [1, 1, 96, 576], "dtype": "float32"}, {"name": "conv2d_207/bias", "shape": [576], "dtype": "float32"}, {"name": "conv2d_208/kernel", "shape": [1, 1, 576, 160], "dtype": "float32"}, {"name": "conv2d_208/bias", "shape": [160], "dtype": "float32"}, {"name": "conv2d_209/kernel", "shape": [1, 1, 160, 960], "dtype": "float32"}, {"name": "conv2d_209/bias", "shape": [960], "dtype": "float32"}, {"name": "conv2d_210/kernel", "shape": [1, 1, 960, 160], "dtype": "float32"}, {"name": "conv2d_210/bias", "shape": [160], "dtype": "float32"}, {"name": "conv2d_211/kernel", "shape": [1, 1, 160, 960], "dtype": "float32"}, {"name": "conv2d_211/bias", "shape": [960], "dtype": "float32"}, {"name": "conv2d_212/kernel", "shape": [1, 1, 960, 160], "dtype": "float32"}, {"name": "conv2d_212/bias", "shape": [160], "dtype": "float32"}, {"name": "conv2d_213/kernel", "shape": [1, 1, 160, 960], "dtype": "float32"}, {"name": "conv2d_213/bias", "shape": [960], "dtype": "float32"}, {"name": "conv2d_214/kernel", "shape": [1, 1, 960, 320], "dtype": "float32"}, {"name": "conv2d_214/bias", "shape": [320], "dtype": "float32"}, {"name": "conv2d_215/kernel", "shape": [1, 1, 320, 1280], "dtype": "float32"}, {"name": "conv2d_215/bias", "shape": [1280], "dtype": "float32"}, {"name": "dense_11/kernel", "shape": [1280, 7], "dtype": "float32"}, {"name": "dense_11/bias", "shape": [7], "dtype": "float32"}, {"name": "depthwise_conv2d_100/depthwise_kernel", "shape": [3, 3, 960, 1], "dtype": "float32"}, {"name": "depthwise_conv2d_100/bias", "shape": [960], "dtype": "float32"}, {"name": "depthwise_conv2d_101/depthwise_kernel", "shape": [3, 3, 960, 1], "dtype": "float32"}, {"name": "depthwise_conv2d_101/bias", "shape": [960], "dtype": "float32"}, {"name": "depthwise_conv2d_85/depthwise_kernel", "shape": [3, 3, 32, 1], "dtype": "float32"}, {"name": "depthwise_conv2d_85/bias", "shape": [32], "dtype": "float32"}, {"name": "depthwise_conv2d_86/depthwise_kernel", "shape": [3, 3, 96, 1], "dtype": "float32"}, {"name": "depthwise_conv2d_86/bias", "shape": [96], "dtype": "float32"}, {"name": "depthwise_conv2d_87/depthwise_kernel", "shape": [3, 3, 144, 1], "dtype": "float32"}, {"name": "depthwise_conv2d_87/bias", "shape": [144], "dtype": "float32"}, {"name": "depthwise_conv2d_88/depthwise_kernel", "shape": [3, 3, 144, 1], "dtype": "float32"}, {"name": "depthwise_conv2d_88/bias", "shape": [144], "dtype": "float32"}, {"name": "depthwise_conv2d_89/depthwise_kernel", "shape": [3, 3, 192, 1], "dtype": "float32"}, {"name": "depthwise_conv2d_89/bias", "shape": [192], "dtype": "float32"}, {"name": "depthwise_conv2d_90/depthwise_kernel", "shape": [3, 3, 192, 1], "dtype": "float32"}, {"name": "depthwise_conv2d_90/bias", "shape": [192], "dtype": "float32"}, {"name": "depthwise_conv2d_91/depthwise_kernel", "shape": [3, 3, 192, 1], "dtype": "float32"}, {"name": "depthwise_conv2d_91/bias", "shape": [192], "dtype": "float32"}, {"name": "depthwise_conv2d_92/depthwise_kernel", "shape": [3, 3, 384, 1], "dtype": "float32"}, {"name": "depthwise_conv2d_92/bias", "shape": [384], "dtype": "float32"}, {"name": "depthwise_conv2d_93/depthwise_kernel", "shape": [3, 3, 384, 1], "dtype": "float32"}, {"name": "depthwise_conv2d_93/bias", "shape": [384], "dtype": "float32"}, {"name": "depthwise_conv2d_94/depthwise_kernel", "shape": [3, 3, 384, 1], "dtype": "float32"}, {"name": "depthwise_conv2d_94/bias", "shape": [384], "dtype": "float32"}, {"name": "depthwise_conv2d_95/depthwise_kernel", "shape": [3, 3, 384, 1], "dtype": "float32"}, {"name": "depthwise_conv2d_95/bias", "shape": [384], "dtype": "float32"}, {"name": "depthwise_conv2d_96/depthwise_kernel", "shape": [3, 3, 576, 1], "dtype": "float32"}, {"name": "depthwise_conv2d_96/bias", "shape": [576], "dtype": "float32"}, {"name": "depthwise_conv2d_97/depthwise_kernel", "shape": [3, 3, 576, 1], "dtype": "float32"}, {"name": "depthwise_conv2d_97/bias", "shape": [576], "dtype": "float32"}, {"name": "depthwise_conv2d_98/depthwise_kernel", "shape": [3, 3, 576, 1], "dtype": "float32"}, {"name": "depthwise_conv2d_98/bias", "shape": [576], "dtype": "float32"}, {"name": "depthwise_conv2d_99/depthwise_kernel", "shape": [3, 3, 960, 1], "dtype": "float32"}, {"name": "depthwise_conv2d_99/bias", "shape": [960], "dtype": "float32"}]}]}